checkpoint_critic.pth (torch_old, 89492 bytes, 9 tensors)

fcs1.weight f4 [128, 33]
000000 1f c1 25 3e cf f2 59 3d 94 14 59 bd 0e 88 24 bd
       0.16186951 0.053210076 -0.05299814 -0.040168814
000010 52 9b 43 bd 25 54 b2 bd 43 50 5c 3e db b3 35 3c
       -0.047755547 -0.087074555 0.21514992 0.011090244
000020 51 4d fc 3d e3 49 1d 3e 5e 5b 9f 3d 2d 49 db 3d
       0.123194344 0.15360217 0.07781099 0.107073165
000030 d6 4f bd 3b 82 01 b1 3d d3 a5 5e 3a 3e 44 ee 3d
       0.0057773395 0.08642866 0.00084933377 0.1163411
000040 b9 84 37 be 6f 46 21 3e eb cb 88 3c b1 64 43 3d
       -0.17921723 0.15749525 0.016698798 0.04770345
000050 cf 0d 6a bc b0 23 7c 3d c1 9d 64 3b e0 4c 15 bd
       -0.014285519 0.06155747 0.0034884068 -0.036450267
000060 4e 89 9d bd ca bf 9c 3d be 7d 5f 3c 41 cc 3a 3d
       -0.076922044 0.07653768 0.013640819 0.045604948
000070 41 c0 30 bc 7e 13 17 bd 80 02 0d bc c0 6c a8 3b
       -0.010788024 -0.036883824 -0.008606553 0.005139917
000080 e2 f1 b4 3d 10 f2 7a bc 8c cf 11 3e 82 2a ff 3b
       0.08835198 -0.015316501 0.14239329 0.0077870497
000090 02 c8 42 bd f8 84 bf 3e 33 3a 80 be 24 b7 32 be
       -0.047554024 0.37406135 -0.25044402 -0.17452675
0000a0 5b 53 18 3d 39 78 76 3d 94 a6 87 3d 09 3b e1 bb
       0.03718887 0.060173247 0.06623569 -0.0068734926
0000b0 2b 15 d4 3c 79 6d a9 bc cf 68 84 bd 9c 55 11 be
       0.025889 -0.020682083 -0.06465303 -0.14192814
0000c0 dd 54 9d bc ba 01 5f 3d 18 98 fa ba f1 cd 3f be
       -0.019205505 0.054445006 -0.0019118814 -0.18730904
0000d0 a8 7b e4 3d 50 8c e3 bc b8 8d 6c bd 68 34 0b 3b
       0.11156398 -0.027776867 -0.05775234 0.0021240953
0000e0 2a f2 10 3d 81 af 65 bd aa 43 e2 b9 f4 4b cf 3d
       0.035387196 -0.056075577 -0.00043156493 0.10121909
0000f0 52 aa a3 3b 89 20 91 bd 80 86 df 3a 9e 50 61 bd
       0.004994669 -0.07086284 0.0017053634 -0.055008523
000100 58 9c 5f bc 44 10 b2 3d ee ac ad 3d 74 5b 74 3d
       -0.013648115 0.08694509 0.08480249 0.05965753
000110 dd f0 a4 bc de ad c3 bc de 1e d0 bc b4 84 15 bd
       -0.020134384 -0.023886617 -0.025405344 -0.03650351
000120 e8 d9 f5 bc 6e 04 7c bc a2 98 10 bc 04 db 3a 3d
       -0.030011132 -0.0153819155 -0.008825453 0.045619026
000130 09 22 9d 3c 32 8b 35 bb 9b 40 27 bc af d8 3d bd
       0.019181268 -0.0027701375 -0.010208274 -0.046349224
000140 f3 12 68 bd 31 4c 4c 3d 14 e3 a1 3c dc 4a 4c bd
       -0.056658696 0.04987735 0.0197616 -0.04987608
000150 d0 65 aa 3c 58 79 01 bd 14 80 c4 3b 6b 40 0c 3d
       0.020800501 -0.031609863 0.0059967134 0.03424112
000160 c0 2c 99 bc da 48 f8 bd 43 ec 34 bd e8 e3 e7 3c
       -0.018698096 -0.1212327 -0.04417063 0.028306916
000170 4e ca d0 3d b1 14 0e be 9f 32 09 bd 5f 9a 89 3d
       0.101948366 -0.1387508 -0.03349554 0.06718897
000180 17 41 5a 3e c5 4f 1e bd 58 14 df be 4b c5 1c be
       0.21313892 -0.038650293 -0.4357021 -0.15309636
000190 52 66 f4 bd d1 45 3d be bf be 9d 3d cc a5 6d 3c
       -0.119335786 -0.18483664 0.077023976 0.014504861
0001a0 9e 99 18 3c cd 58 a3 3c 4e b5 21 bc bb c8 96 3c
       0.009313969 0.019939804 -0.009869887 0.018406263
0001b0 32 9a a6 3c 21 11 d1 bc de c2 87 3b a0 60 68 3b
       0.020337198 -0.025520863 0.004143103 0.0035457984
0001c0 18 b7 48 3c ec e6 54 3d 27 48 b3 3b 04 f6 5d bc
       0.012250684 0.051978037 0.0054712477 -0.013547424
0001d0 15 19 44 bd ec 86 45 bd f9 08 cd bc e4 73 86 bc
       -0.047875483 -0.048224375 -0.025028693 -0.016412683
0001e0 b4 c6 28 bd b9 f9 1a 3c 3d 2f 0d 3d 42 32 85 3c
       -0.041205123 0.009458953 0.034468878 0.016259316
0001f0 2e 9c 25 3d 9b 72 89 3d a6 b4 f9 3d 5e 3b fa 3d
       0.040432148 0.067113124 0.12192659 0.12218355
000200 b6 26 46 3d 1c 45 06 be 13 e9 23 bd e1 07 21 3e
       0.04837676 -0.131123 -0.0400172 0.15725662
000210 17 f4 22 3d 81 b0 ea bd 15 48 4b bc 9c 5f 17 be
       0.039783563 -0.11459447 -0.012407322 -0.14782566
000220 c7 29 1e b9 75 91 a4 3e 5f 19 41 bb 58 dc cf 3c
       -0.00015083617 0.32142225 -0.0029464585 0.025373623
000230 c8 00 46 bc af c2 6e bc 52 22 e0 3c d7 65 dd bc
       -0.012085147 -0.014572783 0.027360115 -0.0270261
000240 3a 0d 85 3c c0 37 0a 3b de c4 af 3d 41 a3 f9 3c
       0.016241658 0.0021090358 0.08582471 0.030473353
000250 6d 4c 11 3e ef 43 1f 3e a3 06 0b 3a 1b 5f a0 3d
       0.1418931 0.15553258 0.0005303418 0.0783064
000260 6e a6 69 3d 15 dc 10 bd 95 4a 7b bc a9 40 0c 3d
       0.057043485 -0.035366137 -0.015337606 0.034241352
000270 dd 8b 14 3d 52 c0 9f bd 63 14 21 3d 4c 85 2d be
       0.036266197 -0.07800354 0.039326083 -0.1694538
000280 5f f6 09 be cd 3c 8d bd 09 8e 2d 3e a4 d5 a6 bc
       -0.1347289 -0.068963625 0.16948713 -0.020365544
000290 a6 64 bf 3e cb 32 03 bd fd 1c 7d bd e9 77 3a 3d
       0.37381476 -0.03203086 -0.061795224 0.04552451
0002a0 4b 6d a9 bc f7 b4 09 3e 95 74 25 3d a5 f2 ca 3d
       -0.020681998 0.13447939 0.040394384 0.09909562
0002b0 90 52 c5 bc 0d d3 b4 bd 20 a4 8f 3b 46 ae 9b 3d
       -0.02408722 -0.08829317 0.004383579 0.076015994
0002c0 6d ef 17 3d 01 de a0 bc 25 5b 0f 3d 8a 39 0b bc
       0.03709357 -0.01963711 0.03499903 -0.008497605
0002d0 b1 1b 91 bc fe a2 ba 3d 6d 71 1c 3e 6d 1f 9b 3d
       -0.0177134 0.091131195 0.15277644 0.07574353
0002e0 95 d4 c9 3d 09 06 35 bc 21 99 0f 3c 4b 9b 05 be
       0.09855 -0.011048802 0.008764536 -0.13047521
0002f0 79 76 35 bd 36 4c cf bc fe 4d 7e 3d 64 47 8c bc
       -0.044302437 -0.025304895 0.062086098 -0.017123885
000300 c5 ba e0 3d fe 9f c6 3d e1 50 88 bd 42 e3 86 bd
       0.109731235 0.09698485 -0.066560514 -0.06586315
000310 62 8d 19 3d 29 fd f7 3e 9a b3 a9 bc be ad 91 3c
       0.03748835 0.48435333 -0.020715524 0.017783042
000320 78 42 3d 3d 5a 93 9d 3e f5 ff 81 bd ff 98 e9 3c
       0.046205968 0.30776483 -0.06347648 0.028515337
000330 c1 0d 38 3d 2e b0 e3 3a c9 1e 85 bd 0d 76 b5 3d
       0.04493499 0.0017371231 -0.065000124 0.08860407
000340 47 cf e8 bc e1 af 9a b9 5d dd 8e 3c 00 ee 2a 3c
       -0.02841915 -0.0002950421 0.017439539 0.01043272
000350 1b ed 03 3d f8 0a 10 bd c5 cd dc bc df 74 5d bc
       0.032208543 -0.03516671 -0.026953587 -0.013516634
000360 6a 7d 02 3e a0 8e 96 bd 61 52 df bc 15 64 77 bc
       0.12743154 -0.07351422 -0.027260961 -0.015099545
000370 21 28 d8 3a ee 8d 21 bd 12 b3 f2 3a b5 2e 32 bd
       0.0016491452 -0.039441995 0.0018516502 -0.043501575
000380 e3 2a bd bd e7 f4 45 3d 6f 30 78 3c 48 28 46 3c
       -0.092366956 0.04832926 0.015148266 0.012094565
000390 2e 50 2a bd 79 98 ae 3d 69 bd fc 3e 19 5e d5 3d
       -0.04158037 0.085251756 0.49363258 0.10418338
0003a0 27 2f 40 be ae 44 34 be 6f d1 ba 3c e7 fb 2f 3e
       -0.18767987 -0.17604324 0.022804944 0.17185937
0003b0 b7 e7 5b bd b2 47 83 3d 69 6b 51 bd b2 d6 78 bd
       -0.053687777 0.06410159 -0.051127825 -0.060751624
0003c0 4f e2 75 3d a4 fd e4 3c 9f 3e d0 bc c7 10 4d bb
       0.060030278 0.027952977 -0.025420485 -0.0031290518
0003d0 a4 46 08 bd 05 9b d0 bc 3f a1 c5 3d c8 3c 41 bd
       -0.033270493 -0.025464544 0.09649896 -0.047177106
0003e0 06 01 7c 3e 4a a9 9e 3d 9f 9e 9c 3d 0c 02 4f 3c
       0.24609765 0.07747133 0.07647442 0.012634765
0003f0 d3 ef 5d bb 30 c3 0b 3c d5 93 e7 bd 69 2e 1c 3d
       -0.003386487 0.008530423 -0.113074936 0.038130198

fcs1.bias f4 [128]
000000 19 74 8d bd a2 10 f0 bd e1 a4 8c 3c 2a 50 31 bd
       -0.069069095 -0.117219225 0.017168464 -0.04328934
000010 36 da 9e 3d 04 e1 33 bd 21 b6 ea bd f4 da 48 3e
       0.07756464 -0.043915763 -0.114605196 0.19614774
000020 7b 94 0d 3e 89 71 e3 3d 0f 72 8e 3c cb c1 8f bd
       0.13826172 0.111056395 0.017388372 -0.07019385
000030 1a f0 55 bd 34 77 e3 3d 2d 16 99 3d 57 72 40 be
       -0.05223093 0.111067206 0.07474933 -0.18793617
000040 28 bf 00 3e aa 4c 82 3d dd 7c 5d be ec 66 50 3e
       0.1257292 0.06362279 -0.21629663 0.20351762
000050 38 65 2f be 37 2f 93 bd 1c dd 8c bd 58 00 14 3e
       -0.17128456 -0.0718674 -0.06878111 0.14453256
000060 49 0e 14 3d 33 df be bc 96 54 ac bd 9e 2b 95 3d
       0.036146436 -0.023299789 -0.08414571 0.0728371
000070 99 ce c9 3d a6 de 8b 3e 8a fe 8d be d2 f3 9e 3d
       0.098538585 0.27318305 -0.2773326 0.07761349
000080 cf 30 df 3d 0e ad a7 3d b7 95 dc bb 4e c3 6d bc
       0.108979814 0.081873044 -0.0067317146 -0.014511896
000090 e7 42 85 be c2 02 1d 3e 23 e6 07 3d b5 4b 83 3e
       -0.26027605 0.15333083 0.03317846 0.25643697
0000a0 61 88 d8 bc 0f ae e0 3d a6 c8 80 3d 1b 06 76 3e
       -0.026432218 0.10970699 0.06288271 0.24025767
0000b0 78 03 a6 3b ca 98 9d bd ea e3 9e 3e a5 a8 da 3b
       0.0050663315 -0.07695158 0.3103326 0.006672936
0000c0 62 a2 b8 3d 57 38 dd bd 1b a1 e4 3c 05 ff 3d bd
       0.09015347 -0.108017616 0.027908852 -0.046385784
0000d0 d8 5b f3 bd f6 62 6c be e5 49 b5 3d 28 15 f0 3c
       -0.11882752 -0.23084626 0.08851985 0.029306963
0000e0 43 83 8a bd 96 51 ff bd ab 36 a2 bc 39 80 1f be
       -0.067633174 -0.12466733 -0.019801458 -0.15576257
0000f0 3a 61 8a 3d 2d 05 7d 3e 57 23 ec bd 87 01 b9 bd
       0.06756826 0.24709006 -0.11530178 -0.090334944
000100 23 3d 63 3c d7 c9 a7 3c c1 85 70 be e4 48 55 3e
       0.013869557 0.020481987 -0.23488523 0.20828587
000110 79 69 c2 bd 9c e4 8c 3d 69 1e f7 3d 27 29 45 3e
       -0.094927736 0.06879541 0.12066347 0.1925398
000120 3a e4 60 be 41 d0 fe 3d 7a 73 54 bd c9 13 0c 3e
       -0.21962062 0.12442065 -0.05186794 0.13679422
000130 00 4d 53 3e 82 2c 22 ba d0 39 75 bd 87 8c b4 3d
       0.20634842 -0.0006186442 -0.059869587 0.08815866
000140 fe f9 3f bd 53 08 1a 3e 1f 9c a8 bd c9 5a 56 3e
       -0.04686927 0.15042238 -0.08232903 0.2093307
000150 2d 89 d4 bd b2 e8 7e be 60 ca 62 3d bf 5f dc 3d
       -0.10377727 -0.24893454 0.05536878 0.107604496
000160 2b 52 4d 3e c8 fe cd bd 40 ae bf 3d ff 78 34 be
       0.20050876 -0.10058361 0.093594074 -0.17624281
000170 0d 6a 9b 3c 08 34 f3 bd 4c 46 12 bd 2d 76 e6 bc
       0.018971467 -0.118751585 -0.03571157 -0.028132522
000180 79 8b b1 bd 61 e0 c1 3d 83 3e 4a bd c2 a8 40 3d
       -0.086691804 0.09466625 -0.049376022 0.04703594
000190 55 df 3d bd 7b 25 16 bc 02 7d 1d 3e 6f 0f ef 3d
       -0.046355564 -0.0091642095 0.15379718 0.116728656
0001a0 10 6d fc bb 2c 49 44 be ca f6 08 be fe 52 60 3c
       -0.007703431 -0.19168538 -0.13375393 0.013691662
0001b0 3c ac 98 bd 58 e9 c6 3c b9 47 e4 3d 42 e0 d2 bd
       -0.07454726 0.024281189 0.111464925 -0.1029668
0001c0 86 e0 6b be 48 ac 13 3e d6 8b 48 3e 51 29 14 be
       -0.23034868 0.14421189 0.19584593 -0.14468886
0001d0 37 36 16 3e dc b0 b4 bd f8 45 85 be a2 13 db 3c
       0.14669119 -0.08822796 -0.26029944 0.02674276
0001e0 9a 65 3b bc 1e 8a 6a bd 0f 3b 1a be 11 df 23 be
       -0.011437798 -0.057260625 -0.15061592 -0.16003062
0001f0 97 1e e5 3d 57 fb e0 3d d1 15 01 3e eb ee ff 3d
       0.11187475 0.10985439 0.12605979 0.12496742

bn1.weight f4 [128]
000000 ef cd 61 3e 64 d9 ac 3e 59 ed 4a 3f 78 c0 c1 3e
       0.22051214 0.33759606 0.79268414 0.37842155
000010 25 8a c2 3e 44 17 98 3e 27 62 20 3f 1a 11 ef 3e
       0.3799602 0.2970525 0.6264977 0.46692735
000020 9e 7f 0a 3f 17 e7 e0 3e 80 ec 4f 3e 70 64 87 3e
       0.5410098 0.43926308 0.20305061 0.26443815
000030 e7 0c 62 3f dc 7c 0e 3f b4 2e e3 3e c2 21 e7 3e
       0.8830094 0.5565927 0.4437157 0.45142943
000040 10 33 0b 3f d3 e4 83 3e 93 eb 84 3e 4b a8 40 3f
       0.5437479 0.25760517 0.2596098 0.75256795
000050 17 51 a3 3e 22 f2 57 3e 1b 7f 37 3f e7 ed 49 3f
       0.31897804 0.2108846 0.7167832 0.78878635
000060 ce a5 2a 3f 2c 94 90 3e cb 2f e8 3e 2d 90 22 3f
       0.6665925 0.28238046 0.45348963 0.63501245
000070 34 81 1d 3f 41 48 0f 3f 11 d1 4b 3e 6f 44 07 3f
       0.61525273 0.55969626 0.19903971 0.52838796
000080 6f 1a 01 3f 60 6e 08 3f fb e8 88 3e f4 99 ef 3e
       0.5043096 0.5329342 0.2674025 0.46797144
000090 8f 18 82 3e fc 24 12 3f f5 d1 3a 3f 8a 51 10 3f
       0.25409362 0.57087684 0.7297662 0.5637442
0000a0 5e c1 99 3e d9 aa d5 3e 3f b8 ad 3e 1a 44 33 3f
       0.3003034 0.4173191 0.3392963 0.7002579
0000b0 03 80 1c 3f cb f5 d4 3e 64 06 e2 3e 08 c0 fd 3e
       0.6113283 0.41593775 0.441455 0.4956057
0000c0 82 c5 9e 3e 41 b7 19 3f b1 9a bd 3e 2d ed 28 3f
       0.31010062 0.6004525 0.37032083 0.659869
0000d0 b6 8c 90 3f d2 ea 17 3f aa e8 bc 3e 7f 1f 35 3f
       1.1292942 0.5934268 0.3689626 0.70751184
0000e0 f7 02 2e 3e 90 61 c8 3e de c7 d9 3e 48 99 47 3f
       0.16993318 0.39136934 0.425353 0.77968264
0000f0 e3 59 97 3e 0a c3 c4 3e 01 33 06 3f 6b 4c 48 3f
       0.29560766 0.38430053 0.52421576 0.78241605
000100 f0 38 ba 3e ff 05 e9 3e 85 45 12 3f bd ed 89 3e
       0.36371565 0.45512387 0.5713733 0.26939192
000110 79 72 97 3e ea 75 b2 3e 40 8d 17 3f c7 99 ee 3e
       0.29579523 0.34855586 0.59199905 0.46601698
000120 c6 53 12 3f 2b 54 3f 3f 04 54 53 3f a4 fe 1e 3f
       0.5715908 0.74737805 0.8255007 0.621073
000130 cb fd 03 3f f3 14 b9 3e 17 27 01 3f 4f bf f8 3e
       0.5155913 0.36148795 0.5045027 0.48583457
000140 99 d8 a9 3e 32 c5 2d 3f e8 3a 0c 3f 85 5e 99 3e
       0.33173063 0.6787902 0.54777384 0.29954925
000150 9d 8e ce 3e d1 47 a2 3e b8 ac 46 3f 2d 06 1c 3f
       0.4034318 0.31695417 0.776073 0.60946923
000160 0b 45 05 3f 2a cc 1c 3f 77 b7 0b 3f 1f 09 dc 3e
       0.52058476 0.6124903 0.5457682 0.4297571
000170 02 19 22 3f 5b ab 20 3f 68 a4 87 3f 07 c9 4b 3f
       0.6331941 0.6276147 1.0597048 0.7960362
000180 60 4b a6 3e 86 37 05 3f 9f 26 04 3f f5 3a f4 3e
       0.32479382 0.5203785 0.5162143 0.4770123
000190 de 4f c1 3e 51 49 22 3f 4c 9b 0b 3f fd 11 af 3e
       0.37756246 0.6339312 0.5453384 0.3419341
0001a0 2d 00 46 3f c9 0b 00 3f 43 00 b4 3e ea 9f bc 3e
       0.7734402 0.5001798 0.3515645 0.36840755
0001b0 8b b7 14 3f 9f de ea 3e 5c e0 49 3f 9f a6 f2 3e
       0.58092564 0.4587297 0.7885797 0.47392747
0001c0 df b9 f1 3e 46 f1 b9 3e 6f a6 f4 3e 47 0c 80 3e
       0.4721212 0.3631689 0.4778323 0.25009367
0001d0 ee 0c ae 3e a1 5d 6f 3f 78 1f 53 3f e6 5a 1f 3f
       0.3399424 0.9350224 0.8246989 0.62248075
0001e0 1a 8c 1f 3f 84 c2 73 3f c7 e8 b3 3e 01 98 cf 3e
       0.62323153 0.9521868 0.35138533 0.40545657
0001f0 da 42 2a 3f 3b 54 a9 3e 49 5a df 3e f7 71 30 3f
       0.6650826 0.33072075 0.4362357 0.68923897

bn1.bias f4 [128]
000000 21 36 1f be ec 88 f4 bd 3f de 4a 3d 24 18 50 bd
       -0.15547992 -0.11940178 0.049528357 -0.050804272
000010 58 0d 01 be af f5 c3 3d 61 17 2a 3d 1d 13 d0 3d
       -0.12602746 0.09568345 0.041526202 0.101598956
000020 13 0a b6 3c f1 fc cf bd 77 ca d5 3d 09 16 cd bb
       0.0222216 -0.101556666 0.10439008 -0.0062587303
000030 8f 12 36 be 0a af 87 bd f5 a0 19 bd 1f ac f4 3d
       -0.17780517 -0.06625183 -0.037507016 0.11946892
000040 b1 59 c4 3d 59 e2 48 bd ce c2 d5 3d 77 6e e6 3d
       0.0958742 -0.049043987 0.10437547 0.11251538
000050 b0 71 b9 3b ad 9f 5e 3d f5 2a 1b 3c b8 5d d2 bc
       0.0056593046 0.054351497 0.009470691 -0.025679454
000060 1a df a3 bc b9 4e 30 bd f4 f5 03 be 54 e6 ec 3d
       -0.020003844 -0.043043826 -0.12886792 0.11567369
000070 3f e4 55 be a4 e3 9b bc 35 53 49 be b9 7a 2c 3e
       -0.2088785 -0.019029446 -0.19660647 0.1684369
000080 53 13 89 3c e4 c9 4e 3d 11 06 ca bd d4 95 1d be
       0.016732847 0.050485507 -0.09864438 -0.15389186
000090 a0 ab c9 bc ac 72 7f 3c 5e 9f 3f be d8 db c1 3b
       -0.02461797 0.015591305 -0.18713138 0.0059161
0000a0 82 d1 bd 3d a3 71 05 be 2a 16 de bc a2 67 85 bd
       0.09268476 -0.1303163 -0.027110178 -0.06513907
0000b0 cb ad 76 bd 5c 9b b6 bd ab 49 42 bd 61 79 a2 3d
       -0.060224336 -0.08916351 -0.047433536 0.079333074
0000c0 18 54 6d 3e 15 99 95 3d 33 d2 9e be f4 70 37 3e
       0.2317661 0.07304589 -0.31019744 0.17914182
0000d0 b8 f9 d7 bc e7 04 64 bd 44 30 cd 3c 8e b6 4e be
       -0.026364192 -0.055668738 0.025047429 -0.20186827
0000e0 21 f3 44 3d 78 f3 3a bd 2e 6f 45 bd 3c e3 de bc
       0.04808343 -0.045642346 -0.048201732 -0.027207963
0000f0 11 5f 0c be 28 50 6a 3e 2f 4b 1f be 48 e9 b2 3d
       -0.1370814 0.2288214 -0.15556024 0.08735901
000100 64 ac 84 bd 04 4e 8d 3e ee 27 5a 3d 86 9c 57 bd
       -0.064781934 0.27598584 0.053260736 -0.052639507
000110 8a 67 b4 bd a4 e5 94 3d 40 d5 c8 bd 57 94 28 3e
       -0.08808811 0.07270363 -0.09806299 0.16462837
000120 0a 95 0e 3d 2c bf 73 3c ba 77 b1 3c 00 09 04 3d
       0.034810103 0.014877122 0.021663535 0.032235146
000130 8c 03 9b bd fc 30 15 3e 3a d9 81 bd 7b f4 97 bd
       -0.07569036 0.14569467 -0.06340261 -0.07419678
000140 d9 02 25 be 42 7f 14 3e 77 3f 3d bd 79 9c 6a bb
       -0.16114368 0.1450167 -0.046203103 -0.0035798831
000150 b8 10 22 be a5 de 80 3d 28 f4 18 3e 82 9f 87 3d
       -0.1582669 0.06292466 0.14936888 0.066222206
000160 ff 3c 13 bd cc b8 4b 3e 88 5e b2 bd ad e6 a3 bc
       -0.035946842 0.19894713 -0.08709437 -0.020007456
000170 0c 47 40 3e 06 87 3b 3d 10 6f 09 bd dc 84 6f 3d
       0.18777102 0.045783065 -0.033553183 0.058476314
000180 fd 46 45 be 03 81 09 be d2 f6 97 3d 84 1a 92 3d
       -0.19265361 -0.1342812 0.07420124 0.07133964
000190 17 98 2e 3b 03 c3 a0 be de b6 59 bd b5 80 6e 3d
       0.0026640946 -0.31398782 -0.05315291 0.058228213
0001a0 9a 95 36 3e 87 93 34 bd 34 ec 4f 3d 48 1f 61 be
       0.17830506 -0.044086006 0.05076237 -0.21984589
0001b0 ef 59 3a be 37 da 3b 3e 1b 6d cf bd 85 61 db 3d
       -0.1819837 0.18344961 -0.10128232 0.1071196
0001c0 8b ae cc bc 7e 31 81 be 67 aa f3 3d b1 4c 4c 3d
       -0.024985572 -0.25233072 0.11897736 0.049877826
0001d0 65 65 e2 bd 47 c4 95 bb 90 6d 24 bc 52 d5 f7 bc
       -0.11054496 -0.004570517 -0.010035887 -0.030253086
0001e0 bd 76 62 3d a5 fa 14 3d c6 4f 0e be 89 b3 2a bd
       0.05528902 0.036371846 -0.13897619 -0.041675124
0001f0 c5 ca ca bd 2d 88 2e bd a5 f3 32 3e d1 80 d3 bd
       -0.099019565 -0.042610336 0.17475756 -0.10327304

bn1.running_mean f4 [128]
000000 e4 ae 37 3e 1c 0a 55 3e f3 af e2 3e 31 2b 62 3e
       0.17937809 0.20804638 0.44274864 0.22086789
000010 74 e4 04 3f 00 95 89 3e a0 0d 76 3e 52 4a 3c 3f
       0.5191109 0.2687149 0.24028635 0.73550904
000020 1e c4 77 3e 46 dd b1 3e b4 71 85 3e d8 bf 3b 3e
       0.24195907 0.3473913 0.2606331 0.18334901
000030 f9 1a 11 3f ae 12 cf 3e 58 71 b7 3e fc e6 4e 3e
       0.5668178 0.4044394 0.35828662 0.20205301
000040 52 b0 ed 3e 22 03 f9 3d 2e 97 bb 3c 9a 5d 17 3f
       0.46423584 0.12158801 0.022899237 0.591272
000050 2d 43 7f 3e 45 d5 9b 3e da d2 b9 3d 52 5f d2 3e
       0.2492797 0.3043615 0.0907342 0.4108835
000060 fe 59 9a 3e bf db 3c 3f 56 69 2f 3e 23 97 59 3e
       0.30146784 0.73772806 0.17130026 0.2124906
000070 61 9c ce 3d b2 76 2a 3f 1f 5f 60 3e 99 f6 fc 3e
       0.10088421 0.66587365 0.21911286 0.4940689
000080 72 7f 74 3e e4 f4 0a 3f d0 aa 3a 3e bc 0f 2d 3e
       0.23876742 0.54279923 0.18229222 0.16900533
000090 f9 72 fd 3c cb cd 3f 3e 4b a3 0f 3f 9e 06 3e 3f
       0.030938612 0.18730848 0.5610854 0.7422885
0000a0 4c 20 de 3e b7 17 a1 3e 3f 28 ee 3a da c8 4c 3f
       0.43384016 0.31463405 0.0018169953 0.79993975
0000b0 49 c6 49 3f 6d 8f b4 3e d5 85 99 3f 69 07 39 3f
       0.78818184 0.35265675 1.1993967 0.7227693
0000c0 42 d1 cd 3e fe 3a ac 3d da 4f 1c 3e 10 0b 2f 3d
       0.40198714 0.08409689 0.15264836 0.04273516
0000d0 2b 6b 50 3e 36 76 ae 3d 72 fa 92 3e a8 1b 02 3e
       0.20353381 0.08518641 0.287067 0.12705863
0000e0 7d 9a 0c 3e cb 17 e5 3d 49 2f 59 3e ce 53 56 3e
       0.13730808 0.11186179 0.21209444 0.20930406
0000f0 48 c9 8f 3e 11 38 5c 3f 9b ca 8d 3e 7a 7b 7a 3e
       0.28083253 0.8602305 0.27693638 0.24461165
000100 c7 c3 20 3e a4 e4 a5 3e a6 9b ec 3c b3 a4 7a 3e
       0.15699683 0.32401 0.028882813 0.2447689
000110 ee 88 7d 3e 38 c2 17 3e 8b f7 5a 3e 94 f0 65 3e
       0.24759266 0.14820182 0.21383493 0.22455055
000120 12 f0 b5 3e 2e 47 bc 3e 29 c0 aa 3e 3c 3f c3 3e
       0.35534722 0.36773056 0.33349732 0.38134181
000130 53 69 92 3e 1c fd 87 3e 24 98 d4 3e fb 5f 49 3e
       0.2859598 0.26560295 0.41522324 0.1966552
000140 33 5f e0 3e 00 90 f9 3e cd d4 cb 3e 63 8c 67 3e
       0.4382263 0.48742676 0.39810792 0.22612147
000150 b4 a8 24 3e 80 ce 30 3d fd d8 ab 3e 37 5c 34 3e
       0.1607998 0.043165684 0.33563986 0.17613302
000160 03 9f 7e 3e 43 55 37 3e 62 c0 ae 3e 14 32 8a 3d
       0.24865346 0.17903619 0.3413115 0.06747833
000170 e1 4c b0 3e cd 8c 06 3e cd 09 e7 3d fb cd 5d 3e
       0.34433654 0.13139649 0.11281166 0.21660607
000180 ca e7 82 3e a3 30 88 3e 7e b7 bb 3d 95 99 d8 3e
       0.25567466 0.26599607 0.09165858 0.42304674
000190 68 17 30 3e 0d f6 61 3e 49 6e e7 3e 6d 5b 52 3f
       0.17196429 0.22066517 0.45201328 0.82170755
0001a0 4c 58 9f 3e 17 cd 4a 3e d6 ed 0d 3f 42 ea be 3e
       0.31122053 0.19804798 0.55441034 0.372881
0001b0 8f db 2a 3d 50 c2 52 3e aa bc cf 3e e8 cc 08 3f
       0.041713294 0.20581937 0.40573627 0.5343766
0001c0 92 37 be 3d eb a5 c3 3e b1 14 c1 3e 81 bf 8c 3d
       0.09287943 0.38212523 0.377111 0.06872464
0001d0 54 fb e7 3d cc 14 9a 3e bc 3c 68 3d b1 0d f2 3e
       0.11327234 0.30093992 0.056698546 0.4727607
0001e0 e0 44 38 3f c0 12 2d 3e d2 18 4f 3e c6 8b 2e 3e
       0.71980095 0.16901684 0.20224312 0.17045507
0001f0 a6 78 31 3f d1 67 41 3e 4a ef 2e 3f 63 ce 84 3e
       0.6932472 0.18887259 0.68333876 0.2593871

bn1.running_var f4 [128]
000000 70 19 d1 3d b3 ae bc 3d fc b9 6b 3e bf 2c 95 3d
       0.1020993 0.09213009 0.23020166 0.07283925
000010 7d e1 a4 3e b9 9c 06 3e b2 11 b1 3d e5 11 4e 3e
       0.32203284 0.13145722 0.08645953 0.20124014
000020 72 15 25 3d 62 81 12 3e 6e f1 d9 3d 9f 7b bb 3d
       0.040303655 0.14307168 0.10641752 0.09154438
000030 2f c0 d3 3e 30 f0 03 3e 96 7c 5b 3e ed 07 29 3e
       0.41357562 0.12884593 0.21434245 0.1650693
000040 49 04 81 3e da 31 0c 3d 94 d4 ff 3b 4e 88 b6 3e
       0.25198582 0.03422723 0.0078073237 0.35650867
000050 95 b2 28 3e b5 89 13 3e 6d cf e1 3c eb 80 6a 3e
       0.16474374 0.14408 0.027564729 0.22900741
000060 73 08 2c 3e d3 42 98 3e c9 2c c6 3d 3f 43 b5 3d
       0.16800098 0.29738483 0.09676511 0.08850717
000070 1b 87 18 3d ec 4c 6b 3e 46 3d 18 3e 35 d1 8b 3e
       0.03723822 0.22978562 0.14867124 0.2730805
000080 16 7b 92 3d e3 c3 36 3e 83 8b b3 3d a0 20 ab 3d
       0.07152383 0.17848162 0.08766844 0.08355832
000090 f8 a4 f3 3b 52 32 0c 3d 96 d0 c3 3e 04 0b f4 3d
       0.0074354373 0.034227677 0.38245076 0.119161636
0000a0 5d 60 b0 3e a8 d9 41 3e 6e 3f 06 3a 88 94 1f 3f
       0.3444852 0.18930686 0.0005121146 0.62336016
0000b0 58 6c c2 3e 16 cb d7 3d 31 ef 14 3f 13 cf 00 3f
       0.37973285 0.105367824 0.5817748 0.5031597
0000c0 0b b1 f7 3d 7b 32 f8 3c d1 2d 33 3d 78 da 92 3c
       0.12094315 0.030297508 0.043744866 0.01792644
0000d0 71 e2 b9 3d 05 92 40 3d ed ef bd 3d eb 3c 4d 3d
       0.090763934 0.047014255 0.09274278 0.050106924
0000e0 bb f6 85 3d a4 16 87 3d 16 50 68 3d 13 9e 9c 3d
       0.06541201 0.06596115 0.056717 0.07647338
0000f0 00 ca 15 3e c1 9c d4 3d f5 dc 27 3e de 23 e1 3d
       0.14627838 0.10381461 0.16392882 0.10993169
000100 9d a2 3f 3d a4 2e cd 3d ad d4 15 3c ea cc d4 3d
       0.04678594 0.100186616 0.009144944 0.10390647
000110 ca a4 e3 3d 58 dc 44 3d a7 17 ce 3d 40 f1 49 3d
       0.111154154 0.0480617 0.10063105 0.04930234
000120 12 9e 1e 3e 48 09 21 3e 43 3b 33 3e f3 a3 14 3e
       0.15489987 0.15726197 0.17503075 0.14515667
000130 68 9c 3c 3d cf 9f 7d 3d 92 f8 40 3e a9 a4 9b 3d
       0.046047598 0.061919983 0.18844822 0.07599766
000140 d1 48 70 3e 83 1a a3 3d 42 f6 74 3e 18 8a b5 3d
       0.23465277 0.07964041 0.23922065 0.0886423
000150 bf da 92 3d e7 8b 68 3c f5 3a af 3d 13 27 15 3d
       0.07170629 0.014193512 0.08556167 0.036414217
000160 24 82 84 3d 0d a6 ab 3d 10 3b 81 3e 6a 8a 97 3c
       0.06470135 0.08381281 0.25240374 0.018498618
000170 34 61 49 3e fb e4 60 3d 95 b9 35 3d 61 d2 bb 3d
       0.19665986 0.054905873 0.044366438 0.09170986
000180 3f 45 17 3e 82 41 15 3e ce b9 23 3d 80 f2 94 3e
       0.14772509 0.1457577 0.03997212 0.29091263
000190 03 9e a3 3d a9 fa bf 3d da 9f 80 3e b1 53 4c 3f
       0.07989123 0.093739815 0.25121957 0.798152
0001a0 87 46 9f 3d 47 1c dc 3d 6c 5a b1 3e 4b 0b 4d 3e
       0.07777124 0.10747581 0.346393 0.20023839
0001b0 3e e4 5e 3c 16 3a b4 3d 80 39 29 3e 98 e9 9f 3e
       0.013604222 0.088001415 0.16525841 0.31232905
0001c0 64 ad 07 3d 6c b3 83 3e 09 33 3b 3e df 3d fb 3c
       0.033124343 0.25722826 0.18281187 0.03066915
0001d0 4e 1c 44 3d ed 26 24 3e bd d5 9b 3c d1 df 93 3d
       0.047878556 0.16030474 0.019022817 0.07220424
0001e0 91 00 05 3f b4 c4 a3 3d ba 1c b9 3d 15 97 a0 3d
       0.5195399 0.079965025 0.09038682 0.078413166
0001f0 34 67 e3 3e 26 0a cf 3d d7 10 d6 3e 86 6f 01 3e
       0.44414675 0.101093575 0.41809723 0.12640199

fc2.weight f4 [128, 132]
000000 77 ca 1a bd 7d 57 4f ba 19 0f 59 3d 03 1a 0a 3d
       -0.03779074 -0.000790946 0.052992914 0.033716213
000010 f1 58 02 bd 44 21 69 bc 66 3f 5c bb d8 39 5f bd
       -0.031823102 -0.014229123 -0.0033607124 -0.054498523
000020 6a 15 a6 bd ac ba 9a 3d d3 98 88 bd dc 39 16 3d
       -0.08109553 0.07555136 -0.06669774 0.036676273
000030 b1 c9 0b be 12 0b c5 bc 00 f9 67 3c ed b1 0a 3d
       -0.13651158 -0.02405313 0.014158487 0.03386109
000040 50 f6 31 be 0c 2b 61 3c 0a bd 52 bd 64 dd 90 bc
       -0.17379117 0.013743173 -0.051449813 -0.017683692
000050 fc 2a d2 3d 22 2d 1a 3c 50 29 3a bd 48 58 76 3d
       0.10262105 0.009410175 -0.045449555 0.060142785
000060 9f 54 e3 bd 80 ed 16 be 66 63 a9 bd bc 08 80 bd
       -0.111001246 -0.14739037 -0.08270912 -0.06251666
000070 5e d6 a1 bc 66 c2 23 3b ce 07 51 3c 88 37 a0 3c
       -0.019755539 0.0024987697 0.012758208 0.01955773
000080 5c 4a a1 3d 4d 87 06 bd 57 86 ba 3c 44 6a 8b bb
       0.07875511 -0.032843877 0.022769136 -0.004254611
000090 f7 3d 81 bd d8 a8 48 3d 2c 4a 23 bd b3 b3 ee bb
       -0.06310647 0.048989147 -0.039865658 -0.0072846054
0000a0 fe 59 8f bd e3 b4 0a 3c 29 ab 17 3d 0f 10 f1 3c
       -0.069995865 0.008465978 0.037028465 0.029426603
0000b0 38 9b 8b 3c 5b 92 39 be 05 f6 de 3d 73 01 b7 3c
       0.017041788 -0.18122236 0.10886768 0.022339558
0000c0 6a b5 e1 bd b7 59 b5 bd a1 99 41 3e 08 17 df bd
       -0.1102093 -0.088550024 0.18906261 -0.10893065
0000d0 ef 84 93 bd da e3 9b bd c9 c0 af bc 93 f7 c2 3c
       -0.072030894 -0.076118186 -0.021454232 0.023799693
0000e0 77 d8 8b 3e 7f 42 00 3d b2 25 aa bd 84 0e 8d 3c
       0.27313587 0.031313416 -0.08307971 0.017218836
0000f0 6b 00 3a bd da 7b 49 3d 0f 94 00 3c 79 53 73 bc
       -0.045410555 0.04919038 0.0078478 -0.014851444
000100 2b 38 fb 3d 45 c8 a8 bd ae 40 40 3d 29 9a 44 bd
       0.122665726 -0.082413234 0.046936683 -0.04799858
000110 9a 32 bb 3c be 08 81 3d 2d 2d 62 3c 28 ec a9 bd
       0.022851277 0.063004956 0.013804716 -0.08296996
000120 6a 33 88 3d 9a a1 c8 3b 8f 52 9b bd 6a a7 35 3b
       0.066504315 0.00612278 -0.07584106 0.0027718195
000130 7b 8d 85 3c 1a 7f f0 bd 7d 23 6a bd 7f c3 87 3c
       0.016302815 -0.11742993 -0.05716275 0.016572712
000140 25 95 5e 3d f7 73 83 3d 21 43 51 be 49 00 7f 3d
       0.054341454 0.06418603 -0.20435764 0.06225613
000150 39 a1 91 bc 9b 4c 34 bc c7 20 00 bd 63 f8 db bd
       -0.017777072 -0.011004592 -0.03128126 -0.107407354
000160 b1 36 e0 bd 3d 47 68 bd c5 89 23 3e fd a3 55 bd
       -0.109479316 -0.056708563 0.15970524 -0.052158345
000170 48 42 c2 3c 9b 9f 1b bd 06 79 18 be 6a 28 3f bd
       0.023713246 -0.03799401 -0.14889917 -0.0466694
000180 86 d5 07 3d d7 2b ab 3d e2 ba 61 bc bc 61 10 bd
       0.033162616 0.08357971 -0.0137774665 -0.035249457
000190 8e c8 65 bd 71 8b ec 3d 67 a1 98 bd 72 e7 54 3e
       -0.056099467 0.11550034 -0.0745266 0.20791414
0001a0 7e fe aa bd cf 04 1f 3c 53 81 aa 3d 9e 26 b9 bd
       -0.08349322 0.009705736 0.08325448 -0.09040569
0001b0 08 be 0d bd 78 63 99 bd 45 96 d9 3b f8 f2 5d bd
       -0.034605056 -0.07489675 0.006640228 -0.05418679
0001c0 ef 08 31 bd 48 0b 81 bd 3b 2f 6c bd e5 7e 16 3d
       -0.04322141 -0.0630098 -0.05766223 0.03674211
0001d0 ea 86 3a bd c0 d7 15 3e 8a 7c bd 3c da 21 5e bd
       -0.04553882 0.14633083 0.023130674 -0.054231502
0001e0 da 6c 75 bd 77 3b 5f be 72 5a 83 3d 2c 1d ab 3d
       -0.059918262 -0.21800028 0.064137354 0.083551735
0001f0 45 74 6c 3d 0e 67 b7 bc 30 95 cf bd 42 ed 61 bd
       0.05772807 -0.022388007 -0.10135877 -0.055157907
000200 0e de 6b bc 2c 08 5d 3b 3e a0 0a bd 5c 9e 20 bd
       -0.014396204 0.0033726795 -0.033844225 -0.039213523
000210 6e 15 f5 bc 0b d5 0e be df 55 8a 3d 56 5b c3 bd
       -0.029917445 -0.13948457 0.0675466 -0.09538905
000220 ff bd a7 3c b5 d8 ba 3c ee 2c 10 3d ed ca a9 3d
       0.02047634 0.022808412 0.0351991 0.08290658
000230 2e df 05 3d 79 2e 53 bb e2 11 1b be 69 a2 9e 3d
       0.032683544 -0.0032223745 -0.1514354 0.07745821
000240 21 84 17 3e fa 11 9c bc fc 4f b4 3c e4 f8 bf 3d
       0.14796497 -0.01905154 0.022010796 0.09373644
000250 95 fa c0 3d ea 52 1b 3c 8c 6f 9d bd e7 e2 3f 3c
       0.09422795 0.0094802175 -0.076872915 0.011711813
000260 b3 ac 08 be d9 f7 a5 bd a5 5c 7e bb b8 c3 f8 bc
       -0.1334713 -0.08103914 -0.0038812545 -0.030366763
000270 19 24 13 3e 32 ad 28 3d 4a f2 df 3d a9 84 0c bd
       0.14369239 0.041180797 0.10934885 -0.034306202
000280 e1 c9 b1 bd 55 70 6a bd 20 91 01 bc eb 02 6d bd
       -0.086810835 -0.057236034 -0.007908136 -0.05786411
000290 5b 2c a3 3a 42 9c ee bd 3d 89 3f bd b3 ee 0f 3e
       0.0012449132 -0.116508976 -0.04676174 0.140559
0002a0 a3 c9 95 3d 0c a1 0f 3d d6 06 15 bd 8a 37 0d bd
       0.0731385 0.035065696 -0.036383472 -0.034476794
0002b0 ae 85 18 3d b6 d0 3c 3e ef 43 b5 37 5b 08 82 3d
       0.037236862 0.18438992 2.1608515e-05 0.0634925
0002c0 28 a6 b9 3c 83 f9 81 3b 25 ee 3b bd 09 cd 2b bd
       0.022662237 0.0039665117 -0.04588141 -0.041943584
0002d0 c5 a0 1d 3b 67 61 db 3d 1d be a3 bd 40 9a 15 3c
       0.0024052125 0.107119374 -0.079952456 0.009131014
0002e0 6e e1 f2 3d 1a 10 a4 bd e7 18 88 3c a4 ac 2e 3e
       0.118594036 -0.08010884 0.016613437 0.17058045
0002f0 e1 09 40 3d 72 a7 aa 3d 0b ea 35 bd 46 00 c0 bc
       0.04688442 0.08332719 -0.044412654 -0.02343763
000300 d0 b3 08 be f0 09 ab 3d a2 39 9b bc f1 4d 94 bc
       -0.13349843 0.08351505 -0.01894838 -0.018103572
000310 64 d4 42 3d ef 80 0e 3c 35 e5 92 3c 4b d0 c4 bc
       0.047565833 0.008697732 0.01793156 -0.024025103
000320 fe 1a 6c bc 92 9b c3 3c 00 5b d9 bd 57 f1 65 3a
       -0.014410732 0.023877893 -0.1061306 0.0008771619
000330 a0 a5 cf bd 07 f4 42 bd 3a 44 99 3c e6 56 34 3c
       -0.10139012 -0.047596004 0.01870929 0.011007046
000340 10 0c 46 bd e7 6f ea bc 18 2b 9e 3c 3a 9e 5c 3d
       -0.048351347 -0.028617812 0.019307658 0.053861834
000350 fd 35 60 bd 9e 58 06 3d 93 e5 b2 bd 1b 67 50 bd
       -0.054738987 0.032799356 -0.08735194 -0.05087958
000360 2f a8 87 bc 31 0f 9d 3d b5 52 06 3e 48 d4 4a 3c
       -0.016559688 0.07668913 0.13117488 0.012379713
000370 fd 6a 80 3d 80 e2 eb 3d b4 b6 58 3c be 3f 91 3d
       0.062704064 0.11517811 0.013227154 0.07092236
000380 61 3e 3b bd e0 40 18 3c f1 0e 45 3d 73 7e 2e bd
       -0.045713786 0.009292811 0.048109952 -0.04260106
000390 68 61 e6 bc 07 67 91 bd 27 6c 85 bd 1d b8 01 be
       -0.028122619 -0.07099729 -0.06514769 -0.1266789
0003a0 1a 29 99 bd ff b6 66 bd 2e 8e ad 3c 26 cf 79 bd
       -0.074785426 -0.056326862 0.02118596 -0.060988568
0003b0 42 96 03 bd b5 4d 3a 3e cd 21 31 bd 5d fe 25 bc
       -0.03212572 0.18193705 -0.043245126 -0.010131446
0003c0 40 e0 90 bc e9 e7 89 3d 42 8e d7 3c 41 f7 d2 3b
       -0.017685056 0.067336865 0.026312951 0.0064381664
0003d0 31 db ab bb 39 04 9b 3d 55 f7 cf bc 84 19 b5 bd
       -0.0052446355 0.07569165 -0.025386492 -0.08842757
0003e0 81 35 b1 bc 14 87 02 3e f9 9b 08 be 9b c7 90 3d
       -0.021631958 0.1274684 -0.13340749 0.07069322
0003f0 87 ce 12 be 57 f2 a1 3c ff 4e a2 bd e4 45 cb 3d
       -0.14336596 0.019768877 -0.079252236 0.0992544

fc2.bias f4 [128]
000000 3c 68 35 be 83 03 2b 3e 68 cc 8d 3e 9b 5a 57 be
       -0.17715544 0.16700558 0.27695012 -0.21030657
000010 8b 6d ea bd 6c d3 83 3d e7 93 9f 3c 0e b4 86 be
       -0.11446675 0.0643681 0.019479705 -0.26309246
000020 a7 42 36 be 20 7b 04 be 4a 98 20 be 41 ad 8a 3e
       -0.17798863 -0.12937593 -0.15683094 0.27085307
000030 6c eb e7 3d c4 20 09 be f5 c6 37 be 54 78 80 be
       0.113242 -0.13391405 -0.1794699 -0.25091803
000040 f8 89 45 be 65 7c 5a 3e e9 8e 1b be 82 10 80 be
       -0.19290912 0.21336515 -0.15191235 -0.25012594
000050 b9 eb 7a 3e 91 53 15 be 0a b1 6a 3d 44 b9 84 be
       0.24503984 -0.1458266 0.057297744 -0.25922596
000060 0b 6d 2c be e2 6c 25 be 64 ad 07 be 4f 83 57 3e
       -0.16838472 -0.16154817 -0.13249737 0.21046184
000070 5a bd 59 3e 3c 0f 46 be d9 0d 7b 3e c3 6f 02 be
       0.21263638 -0.19341749 0.24517001 -0.12737946
000080 10 12 76 3c a0 bf 22 3e 2f b6 3c be 51 a2 09 be
       0.015018955 0.15893412 -0.18428873 -0.13440825
000090 74 4f 07 bd e3 c7 e9 3d f3 72 2f 3e a8 84 97 3d
       -0.033034757 0.114150785 0.17133693 0.07398349
0000a0 1b 4a 59 be 1e 39 04 3e 52 c0 15 3e 7e 3b 32 be
       -0.21219675 0.12912413 0.14624146 -0.17405507
0000b0 a2 4e 72 3e 43 cb bf bd c8 69 3c be ec 61 52 3d
       0.23662809 -0.09364941 -0.18399727 0.051362917
0000c0 40 64 c9 bd ed 39 bf bc ff fe 42 be c2 4f 28 be
       -0.09833574 -0.02334305 -0.19042586 -0.16436675
0000d0 38 80 3f 3d f3 71 bd 3d 9b 76 81 bd 73 5c 2a be
       0.04675314 0.0925025 -0.0632145 -0.16636829
0000e0 21 83 73 be fd 35 34 3e a0 f4 0a be cc b3 34 be
       -0.2378049 0.1759872 -0.1356988 -0.17646712
0000f0 61 65 3a be da 7b 90 bd 1b f1 5a 3e e1 16 0e be
       -0.18202735 -0.07054873 0.21381037 -0.13875915
000100 dd 68 53 3e b9 ee f7 bd d9 b3 86 bd a1 27 0c be
       0.20645471 -0.121060796 -0.06577272 -0.13686992
000110 67 ad 56 3e 02 07 7c be 29 25 8b be f0 fc 1a be
       0.20964585 -0.24612048 -0.27176788 -0.1513555
000120 86 4d 57 be 8f 7e 84 3e 83 a6 ca 3d a7 5f 80 3e
       -0.21025667 0.25877807 0.09895041 0.25072977
000130 aa 6a 4d be 85 df 39 be e1 7a 62 be f7 7a 18 be
       -0.2006022 -0.18151672 -0.22117187 -0.14890657
000140 a3 35 96 3e b2 e6 80 3e de 6d 46 be 82 48 11 bc
       0.29337797 0.25176007 -0.19377849 -0.008867385
000150 62 c6 1e 3e f4 bf 63 3d e5 7f 43 be 70 ee 72 3e
       0.15505365 0.055602983 -0.19091757 0.23723769
000160 c3 b0 8e 3d 8e 82 76 be e6 4e 80 be 32 7c 3b be
       0.06967308 -0.2407324 -0.25060195 -0.18309096
000170 19 94 2f 3e 84 38 3c be d2 8f 6b 3d 49 be 07 3e
       0.17146339 -0.18380934 0.057510205 0.13256182
000180 7f 14 a4 3d 43 02 2f 3e e3 f4 93 3d 8f 31 54 be
       0.08011722 0.17090707 0.07224443 -0.2072203
000190 7c 9a 70 3e a4 52 2c be 03 c3 50 be 80 5e 8d 3e
       0.23496431 -0.168284 -0.20386891 0.2761116
0001a0 1f ac 14 bd 0b 4b 02 be 64 e6 e3 3d fc 0d 8b 3e
       -0.03629696 -0.12723939 0.11127928 0.27159107
0001b0 43 eb 54 be 40 cc b5 bd 79 d7 00 be 4e a1 ab 3e
       -0.2079287 -0.08876848 -0.12582196 0.33521503
0001c0 ca c0 6b 3e 86 08 75 3e a6 81 e0 bd 0f a3 0c be
       0.23022762 0.23929033 -0.109622285 -0.13734077
0001d0 7c c7 65 be c4 87 57 be bf 46 02 3e 69 23 bb 3d
       -0.22439378 -0.21047884 0.127223 0.09137613
0001e0 ad 74 a4 bd eb 99 86 be a1 1c 8f 3e c6 f0 92 3e
       -0.08030067 -0.26289305 0.2795153 0.2869932
0001f0 4f b9 4d be b5 55 df bd f6 83 55 be 1a 01 9d bc
       -0.20090221 -0.10905019 -0.2085112 -0.019165564

fc3.weight f4 [1, 128]
000000 f8 b5 ff bd 22 6b 9e 3d 04 2f a5 3d 0c 05 9c bd
       -0.1248588 0.07735278 0.08065608 -0.0761815
000010 23 27 66 bd 12 d0 7f 3d ef bd 84 3d 3e 4e ed bd
       -0.056189667 0.06245429 0.064815395 -0.11587189
000020 b2 14 31 bd bc de e9 bd 32 0e df bd cb eb 96 3d
       -0.043232627 -0.11419436 -0.108913794 0.07369193
000030 b9 09 93 3d d0 a8 b4 bd 4c ab de bd 2f fc 05 be
       0.07179589 -0.08821261 -0.10872516 -0.13084482
000040 43 1c 99 bd 61 41 db 3d f0 59 a9 bd 3e ae 34 be
       -0.074760936 0.107058294 -0.08269107 -0.17644593
000050 bb 38 a1 3d d7 50 a0 bd d5 c8 21 3e 60 f0 d3 bd
       0.078721486 -0.07827919 0.15799268 -0.10348582
000060 4d 71 83 bd 75 a7 25 3e 6f 08 73 bd 80 c2 a8 3d
       -0.06418095 0.16177161 -0.059334215 0.08240223
000070 68 5b df 3d f3 1c ed bd 24 4e aa 3d 31 b0 81 bd
       0.10906106 -0.11577787 0.083156854 -0.06332434
000080 ee 3f b2 3d 8d c6 be 3d dc 88 90 bd 28 75 ba bd
       0.087036 0.09315214 -0.07057354 -0.09104377
000090 5b 51 a7 3d 47 9f b8 3d 6e ab ca 3d 05 b8 99 3d
       0.08169814 0.09014755 0.09895979 0.07505802
0000a0 e5 f3 9e bd de 05 c1 3d c1 37 a5 3d a5 53 a5 bd
       -0.07761363 0.09424947 0.08067275 -0.080725946
0000b0 3a 60 a4 3d d4 02 fb 3d 6a 57 8a bd c1 77 bb 3d
       0.08026166 0.12256399 -0.06754954 0.091537006
0000c0 7f ed d6 3d ef f2 6a 3d 46 3c 83 bd cb ef 89 bd
       0.104945175 0.057360586 -0.064079806 -0.0673519
0000d0 02 a1 9e 3d 92 d9 99 3d 4f 21 7b bd 16 f8 cf bd
       0.077455536 0.07512201 -0.061311062 -0.101547405
0000e0 4f 08 49 be 1e ad da 3d eb 3d f6 bd 92 b9 b8 bd
       -0.19632076 0.10677551 -0.12023529 -0.0901977
0000f0 1f 00 d0 bd ee d0 c5 bd 0a 47 ad 3d d8 23 dc bd
       -0.10156273 -0.09658991 0.08460815 -0.10749024
000100 09 d1 ca 3d 8a 38 9b bd fc 63 27 3e 29 d4 80 bd
       0.099031515 -0.07579143 0.16346735 -0.06290466
000110 a3 f6 69 3d 57 fd cb bd 92 01 ab bd 95 29 a1 bd
       0.057119977 -0.0996043 -0.08349909 -0.07869259
000120 61 56 af bd 03 8a a1 3d 30 2b b2 3d d0 4a 99 3d
       -0.08561397 0.07887652 0.086996436 0.074849725
000130 ab 39 f0 bd 9d bd 6d bd 0f fa 8d bd ac fc af bd
       -0.11729749 -0.058042157 -0.069324605 -0.08593115
000140 54 8d c6 3d 51 0c 98 3d ab b9 ae bd 41 80 a4 3d
       0.09694925 0.07424224 -0.08531507 0.08032275
000150 0d a7 b3 3d 91 3a ac 3d ef 50 96 bd 16 08 e1 3d
       0.08772097 0.08409608 -0.073396556 0.109878704
000160 33 ea 41 3d ee f0 d7 bd f5 a0 64 be 82 10 9e bd
       0.04734249 -0.105440006 -0.22327025 -0.07717992
000170 b4 0f 95 3d 53 14 b8 bd a3 a8 b9 3d 66 c9 6c 3d
       0.07278386 -0.089882515 0.09065368 0.057809256
000180 91 55 72 3d 62 aa 2a 3d bf 06 94 3d 85 8c a8 bd
       0.059163634 0.041666396 0.07227849 -0.08229927
000190 83 66 ba 3d d5 00 89 bd d8 51 86 bd f9 c6 9c 3d
       0.09101584 -0.06689612 -0.06558579 0.076551385
0001a0 0b 9d fb 3d 77 22 98 bd 18 3d c5 3d e1 dc 89 3d
       0.12285813 -0.07428449 0.09630793 0.067315824
0001b0 a6 b5 d5 bd 23 40 75 bd 4b 69 9f bd b2 f4 eb 3d
       -0.10435037 -0.05987562 -0.07783755 0.11521281
0001c0 6f 3b ce 3d 12 0e bc 3d bc 8e 97 bd db 53 a2 bd
       0.1006993 0.09182371 -0.07400271 -0.079261504
0001d0 7d 2d 0f be 0f f3 ac bd bf 48 c6 3d 2a 6c 56 3d
       -0.13982196 -0.08444797 0.09681844 0.052349247
0001e0 12 e1 bb 3d e2 81 9e bd 0e 0a f2 3d 1f a5 9f 3d
       0.09173788 -0.07739617 0.11818324 0.07795166
0001f0 1f c9 b0 bd 56 44 92 bd da 3b 06 be cf 55 ad bd
       -0.08632111 -0.0714194 -0.13108769 -0.08463632
