checkpoint_actor.pth (torch_old, 88990 bytes, 10 tensors)

fc1.weight f4 [128, 33]
0.010150339 -0.176949 -0.1340224 0.17950402 0.06639309 0.07004454 -0.06343007 -0.0301374
0.11722962 0.0992238 -0.009936122 0.027035454 -0.06723232 -0.0640961 0.09434976 0.014641832
0.0793347 -0.067748874 -0.22638907 -0.16750138 -0.046172153 -0.04451989 -0.0008647733 -0.030839564
0.02884794 -0.022486737 0.10007791 -0.02078574 0.0113865165 0.028391264 -0.07047498 0.07154157
-0.16205701 -0.023359176 0.03656747 0.009988679 -0.07035894 -0.088443406 -0.043136086 -0.10036173
0.034307677 0.039395224 0.023837144 -0.011528293 0.012472095 -0.057950474 0.0023050846 0.03303081
0.033323694 0.02124929 -0.011422798 0.18277697 -0.016397716 -0.0032228148 -0.05869871 -0.009944402
0.029048875 -0.0057180678 -0.058809 0.045572214 -0.022958735 -0.08980047 0.059375294 -0.032616265
-0.08058823 0.70812094 0.022968084 -0.032214683 0.016137399 -0.026571436 -0.025128892 0.08022058
0.012344635 -0.08434546 0.012334414 0.07335375 0.029385516 0.04461984 0.020011302 0.02248262
-0.014100059 -0.02284711 0.06713913 0.04881924 0.10484324 -0.027778318 0.009950158 0.031303264
0.006098144 0.032457303 0.0036852935 0.024669897 0.074062206 0.2112772 0.05028311 0.02471181
-0.08432366 -0.045673013 -0.6311996 -0.05131653 0.041016348 -0.12432761 -0.044377778 -0.09031432
-0.05934073 0.112614006 -0.011298051 0.018577587 0.017051328 0.0009439744 -0.008021843 -0.013176699
0.08653416 -0.054774687 0.192389 0.0057749012 0.11987554 0.1327081 0.08885109 0.004986478
0.027354676 -0.030895138 0.040075086 -0.01601271 0.020100668 -0.040988006 0.08631245 -0.085974
0.0833867 -0.101623066 -0.06530874 -0.008881837 -0.058158834 0.008906645 -0.024320079 0.007291945
0.07560726 -0.040474966 -0.0691249 -0.014097676 -0.034489013 0.0063600643 -0.03098337 -0.017733771
-0.016899085 -0.023142442 0.02506549 0.0007925696 0.07649773 -0.08668888 0.0072029396 0.0665466
-0.0019201408 0.015336697 -0.023032133 0.011552328 0.022667807 -0.035322033 0.041350402 0.05964366
-0.104950294 -0.085459426 -0.025139596 -0.039575435 0.6177246 -0.2273387 -0.11587434 -0.13589315
0.18343598 -0.13214672 -0.08462573 0.010249607 0.017481344 0.009663505 -0.10206346 -0.028795118
0.035407133 -0.062428694 0.02126879 0.07542261 -0.096824445 -0.13360363 -0.076348305 -0.22600432
-0.097556226 -0.015946647 0.034317702 -0.055987444 0.015757341 -0.015740827 -0.0115040755 0.0552643
0.06972622 -0.0012696502 0.007566929 -0.104936294 -0.03837895 -0.07748146 0.012350293 -0.014699934
-0.004656526 0.12989596 0.253987 -0.26125875 -0.06293995 -0.04127017 0.08984278 -0.06357871
-0.00744807 -0.038810305 -0.0020354006 0.15393385 -0.037195172 -0.19559324 0.016979892 -0.06368271
-0.07056691 0.14540474 -0.041045755 -0.018509569 0.010349828 -0.024744293 -0.04022014 -0.04898025
0.010046479 0.21765816 -0.018575942 -0.039304852 -0.20406955 -0.07968125 0.06903758 0.048585318
0.20583525 -0.016930094 0.019542295 -0.17596881 0.12417196 -0.014098172 0.032555565 -0.05595533
0.018906917 0.0040885573 0.035591695 -0.0838116 -0.058776285 -0.024615664 -0.053786635 0.09201301
-0.0056575863 -0.10488369 -0.089171275 0.012311 -0.023268437 -0.010646693 -0.025306953 0.04219903
00000000: 9c4d 263c 1e32 35be 2b3d 09be e7cf 373e
00000010: 1af9 873d 8373 8f3d a0e7 81bd b5e2 f6bc
00000020: 1516 f03d d935 cb3d 1ecb 22bc 7579 dd3c
00000030: 19b1 89bd d144 83bd 723a c13d 4be4 6f3c
00000040: 3b7a a23d ecbf 8abd 89d2 67be 7b85 2bbe
00000050: 031f 3dbd 7d5a 36bd f4b1 62ba 41a3 fcbc
00000060: 8452 ec3c 1b36 b8bc a6f5 cc3d db46 aabc
00000070: 838e 3a3c cc94 e83c 3055 90bd 6384 923d
00000080: 46f2 25be be5b bfbc c5c7 153d 8ea7 233c
00000090: 5918 90bd d121 b5bd 77af 30bd 738a cdbd
000000a0: 3586 0c3d e35c 213d 1d46 c33c 2ae1 3cbc
000000b0: c257 4c3c 7a5d 6dbd e710 173b 514b 073d
000000c0: 6d7e 083d fe12 ae3c b026 3bbc e329 3b3e
000000d0: 8154 86bc dc35 53bb 0f6e 70bd d8ed 22bc
000000e0: e8f7 ed3c a15e bbbb b5e1 70bd eea9 3a3d
000000f0: f513 bcbc 4fe9 b7bd 8233 733d a298 05bd
00000100: 710b a5bd 6a47 353f 9027 bc3c 8bf3 03bd
00000110: 9432 843c 57ac d9bc 1bdb cdbc b04a a43d
00000120: 2741 4a3c 50bd acbd 4816 4a3c 7e3a 963d
00000130: e5b9 f03c 4bc3 363d beee a33c 792d b83c
00000140: ef03 67bc dd29 bbbc 3d80 893d aff6 473d
00000150: 0db8 d63d 5b8f e3bc fd05 233c da37 003d
00000160: f1d2 c73b f3f1 043d f784 713b 8618 ca3c
00000170: edad 973d 0d59 583e aaf5 4d3d 6c70 ca3c
00000180: e2b1 acbd a013 3bbd 4c96 21bf 4831 52bd
00000190: c200 283d 799f febd 79c5 35bd b7f6 b8bd
000001a0: 440f 73bd 2ca2 e63d 761b 39bc 0630 983c
000001b0: 3aaf 8b3c 0d75 773a 0c6e 03bc 15e3 57bc
000001c0: d238 b13d 6c5b 60bd 9f01 453e 623b bd3b
000001d0: 4f81 f53d a2e4 073e 8ff7 b53d 9c65 a33b
000001e0: ea16 e03c cd17 fdbc c625 243d 162d 83bc
000001f0: 28aa a43c 0ae3 27bd 95c4 b03d 2313 b0bd
00000200: a5c6 aa3d c11f d0bd 97c0 85bd 2085 11bc
00000210: f537 6ebd 2ded 113c e73a c7bc 45f1 ee3b
00000220: fbd7 9a3d 14c9 25bd 5b91 8dbd f0f9 66bc
00000230: 5a44 0dbd 1668 d03b d6d0 fdbc 6a46 91bc
00000240: f36f 8abc 3895 bdbc 2456 cd3c 72c4 4f3a
00000250: d8aa 9c3d f189 b1bd a306 ec3b 9549 883d
00000260: 3cad fbba c546 7b3c e2ad bcbc fa45 3d3c
00000270: d6b1 b93c d6ad 10bd 0a5f 293d e94c 743d
00000280: 2ef0 d6bd 5a05 afbd 8ef1 cdbc da19 22bd
00000290: 3323 1e3f 7acb 68be 874f edbd 9327 0bbe
000002a0: a4d6 3b3e 7851 07be 4150 adbd f8ed 273c
000002b0: 0935 8f3c ad53 1e3c a606 d1bd bde3 ebbc
000002c0: 1207 113d 3bb5 7fbd e33b ae3c 2b77 9a3d
000002d0: e54b c6bd 64cf 08be 805c 9cbd ad6d 67be
000002e0: 8fcb c7bd 8ba2 82bc b890 0c3d 1753 65bd
000002f0: 8a15 813c e8f2 80bc 977b 3cbc d25c 623d
00000300: 9fcc 8e3d 646a a6ba 00f4 f73b d7e8 d6bd
00000310: 3f33 1dbd 9aae 9ebd e258 4a3c fed7 70bc
00000320: c595 98bb 7203 053e 960a 823e b5c3 85be
00000330: a9e6 80bd e90a 29bd 7eff b73d 8e35 82bd
00000340: f10e f4bb 8ef7 1ebd 5b64 05bb d6a0 1d3e
00000350: f759 18bd 9849 48be 6a19 8b3c 156c 82bd
00000360: 6285 90bd fbe4 143e 981f 28bd 61a1 97bc
00000370: 5392 293c 8bb4 cabc e0bd 24bd 849f 48bd
00000380: fd99 243c c8e1 5e3e 932c 98bc 20fe 20bd
00000390: 9cf7 50be ec2f a3bd 9363 8d3d 6601 473d
000003a0: 7ac6 523e fbb0 8abc 2a17 a03c 2b31 34be
000003b0: de4d fe3d 05fc 66bc fc58 053d 6b31 65bd
000003c0: aee2 9a3c 4ef9 853b 99c8 113d 6ba5 abbd
000003d0: 67bf 70bd caa6 c9bc 604f 5cbd 5171 bc3d
000003e0: 4663 b9bb 43cd d6bd 6e9f b6bd 14b4 493c
000003f0: 739d bebc 786f 2ebc 8750 cfbc e4d8 2c3d

fc1.bias f4 [128]
-0.05550797 -0.1605488 -0.28165936 -0.037226453 -0.07932557 0.05960155 -0.17250833 0.07539773
-0.21785906 -0.15371129 0.029481081 -0.18355931 0.07258683 0.037877496 -0.023279298 -0.18726254
0.18258034 -0.093431994 -0.020626025 0.23700273 -0.10022638 0.06020251 -0.096879125 -0.056962244
0.13569221 -0.08286536 0.0815601 -0.030082133 -0.15664013 -0.043230474 -0.141732 0.11444228
0.021901023 -0.009848129 0.12914838 -0.12710294 0.049326204 0.14639875 0.036487713 0.19217333
0.14666806 0.040721506 0.041046124 0.218668 -0.01973595 -0.23900442 -0.04039157 0.0032883822
-0.009960885 -0.026263285 0.0480982 -0.08137258 -0.17597374 -0.21049538 -0.0050704675 0.15342304
0.027296796 -0.19513409 -0.19429319 0.052697215 -0.003972791 -0.1792459 0.19357386 -0.23511805
0.27484924 0.025182739 0.053613715 -0.049674746 -0.31243604 0.11207431 0.03211417 0.07280388
0.02221353 0.01479083 -0.18369602 -0.046249967 0.036479957 -0.04731469 0.111673556 0.27031305
0.0038732614 0.28453475 -0.09553961 -0.07704742 -0.15577441 -0.23076741 -0.22189133 0.061584834
-0.04254498 -0.2141029 0.116645776 0.051447317 -0.05172014 -0.13839935 0.11851432 -0.24863245
0.020356108 -0.16530192 -0.0036037362 0.14792812 -0.072432205 -0.115766495 0.27209803 -0.10819016
0.22534412 -0.2297178 -0.17178167 -0.03465949 0.004027639 0.05784739 -0.09592287 -0.19077179
-0.16435795 0.14390646 -0.010167927 -0.20383255 0.099224016 -0.084787056 -0.041488398 -0.24215813
-0.040603224 -0.043009184 -0.0736043 -0.19176951 0.07699843 -0.038933333 0.19995624 0.3190106
00000000: 535c 63bd e866 24be a835 90be c47a 18bd
00000010: 7275 a2bd c120 743d 06a6 30be 206a 9a3d
00000020: 7216 5fbe 7e66 1dbe 4f82 f13c f9f6 3bbe
00000030: 67a8 943d 6f25 1b3d 3ab4 bebc c0c1 3fbe
00000040: 57f6 3a3e 4659 bfbd e9f7 a8bc d8b0 723e
00000050: 7d43 cdbd e896 763d 9068 c6bd 3e51 69bd
00000060: e6f2 0a3e 50b5 a9bd fb08 a73d ce6e f6bc
00000070: 4566 20be 7012 31bd 3222 11be b760 ea3d
00000080: c669 b33c 0c5a 21bc 793f 043e 4627 02be
00000090: 460a 4a3d 8ee9 153e 2474 153d 16c9 443e
000000a0: 2730 163e 98cb 263d fb1f 283d 81ea 5f3e
000000b0: 49ad a1bc 93bd 74be a271 25bd e681 573b
000000c0: fb32 23bc 1a26 d7bc 9e02 453d aba6 a6bd
000000d0: 7632 34be 1a8c 57be 2a26 a6bb ee1a 1d3e
000000e0: 889d df3c 3bd1 47be cbf4 46be 09d9 573d
000000f0: 302e 82bb 3d8c 37be 3a38 463e c9c2 70be
00000100: 0ab9 8c3e 084c ce3c 0e9a 5b3d bf77 4bbd
00000110: 9ef7 9fbe 3787 e53d 268a 033d 331a 953d
00000120: 26f9 b53c 3d55 723c cf1a 3cbe 9b70 3dbd
00000130: 026c 153d 0ccd 41bd 1bb5 e43d 7966 8a3e
00000140: 8bd6 7d3b 8aae 913e 45aa c3bd 0acb 9dbd
00000150: 5483 1fbe 4b4e 6cbe 7b37 63be 6140 7c3d
00000160: a543 2ebd ca3d 5bbe fbe3 ee3d 6cba 523d
00000170: 7fd8 53bd 8fb8 0dbe a3b7 f23d 8199 7ebe
00000180: dac1 a63c e844 29be a92c 6cbb 787a 173e
00000190: 5657 94bd fc16 edbd 6f50 8b3e cd92 ddbd
000001a0: 9cc0 663e 253b 6bbe 89e7 2fbe 1cf7 0dbd
000001b0: 49fa 833b 63f1 6c3d 3673 c4bd ae59 43be
000001c0: 734d 28be 375c 133e 6097 26bc 7bb9 50be
000001d0: f635 cb3d d6a4 adbd bdef 29bd 4df8 77be
000001e0: 914f 26bd 662a 30bd dabd 96bd 3a5f 44be
000001f0: 5ab1 9d3d 8f78 1fbd 54c1 4c3e 5b55 a33e

bn1.weight f4 [128]
0.6061321 0.7384498 1.2355806 0.56854606 0.6669565 0.59366477 0.7579268 0.75889903
0.6493813 0.7452725 0.63826495 0.52499205 1.0911293 0.7894127 0.8304503 0.6629318
0.44568548 0.61033607 0.60617137 1.06952 0.45356348 0.51583785 1.2401383 0.9731596
0.93346906 0.3950849 0.533671 1.2796924 0.8778134 0.8826382 0.66185313 1.0115525
0.7781063 0.9334388 0.5209508 0.5394388 0.49494365 0.91966593 1.1115474 0.95570785
0.5696913 0.88423187 0.9866186 1.039071 1.0424589 0.5094819 0.84349996 0.7257016
0.55283237 0.6833162 0.58476025 1.0329423 1.2941412 1.1327982 0.6442598 0.7292753
0.5275066 0.6774093 0.7219219 1.2291648 0.47298747 0.70137775 0.93641907 1.1686553
0.58599174 0.73027855 1.0504124 0.53296137 0.6107841 0.67879385 0.70568025 0.8234721
0.7704477 1.1171303 1.0193406 1.0341203 0.7872717 0.7100894 0.7857143 0.7603986
0.5780919 1.000287 0.8569866 0.63926613 0.51036733 0.5728888 1.0097497 1.1777843
0.7886333 0.97847486 0.97219807 0.84715784 1.1127033 1.1018255 0.91335773 0.81575334
0.58523774 0.8054894 0.582619 0.8995192 0.4879185 1.1898855 0.78903043 0.54996747
1.1326455 0.73995703 0.6807726 0.8669371 0.9699387 0.5594962 1.165143 0.8209018
0.591348 0.7759949 0.55100346 0.49601042 0.6205144 0.7823923 0.77841663 1.1604462
0.9232055 1.1360904 0.6950894 0.8166994 1.0268667 0.4516861 0.7411759 1.0729523
00000000: 792b 1b3f 0c0b 3d3f 8127 9e3f 3c8c 113f
00000010: a9bd 2a3f 6afa 173f 7e07 423f 3547 423f
00000020: da3d 263f 2eca 3e3f 5565 233f e165 063f
00000030: 20aa 8b3f f316 4a3f 6498 543f e6b5 293f
00000040: e330 e43e fc3e 1c3f 0c2e 1b3f 08e6 883f
00000050: 7939 e83e f30d 043f dabc 9e3f fd20 793f
00000060: d4f7 6e3f 9148 ca3e aa9e 083f f6cc a33f
00000070: 61b8 603f 94f4 613f 356f 293f 8d7a 813f
00000080: f931 473f d8f5 6e3f 085d 053f a918 0a3f
00000090: 4169 fd3e 3a6f 6b3f 2f47 8e3f 45a9 743f
000000a0: 4ad7 113f 055d 623f 0993 7c3f 4700 853f
000000b0: 4b6f 853f 686d 023f 9def 573f 94c7 393f
000000c0: 6c86 0d3f cfed 2e3f d9b2 153f 7437 843f
000000d0: 6ba6 a53f 88ff 903f 36ee 243f c9b1 3a3f
000000e0: ac0a 073f b26a 2d3f e0cf 383f 4655 9d3f
000000f0: 6a2b f23e 7e8d 333f 29b9 6f3f 7f96 953f
00000100: 8e03 163f 89f3 3a3f ea73 863f 2870 083f
00000110: 595c 1c3f 6fc5 2d3f 76a7 343f 11cf 523f
00000120: 0f3c 453f 20fe 8e3f c179 823f 0e5e 843f
00000130: a38a 493f 6bc8 353f 9324 493f 7ca9 423f
00000140: d5fd 133f 6809 803f 7963 5b3f f2a6 233f
00000150: 6fa7 023f d7a8 123f 7a3f 813f a3c1 963f
00000160: dfe3 493f 547d 7a3f f9e1 783f 56df 583f
00000170: 106d 8e3f 9e08 8d3f d0d1 693f 36d5 503f
00000180: 24d2 153f 8e34 4e3f 8526 153f e446 663f
00000190: 74d0 f93e 2b4e 983f e6fd 493f abca 0c3f
000001a0: 87fa 903f d36d 3d3f 1d47 2e3f 97ef 5d3f
000001b0: e74d 783f 253b 0f3f 6823 953f 9f26 523f
000001c0: 9562 173f 9aa7 463f 900e 0d3f 14f5 fd3e
000001d0: 08da 1e3f dd4a 483f 5046 473f 8089 943f
000001e0: 3257 6c3f 696b 913f 61f1 313f 3613 513f
000001f0: 5e70 833f 6743 e73e b4bd 3d3f 8056 893f

bn1.bias f4 [128]
0.07223957 -0.119931616 -0.1234005 0.10471399 -0.0077699046 0.05831945 0.16711101 -0.188818
0.10516311 -0.056860514 -0.1874232 -0.14916433 0.221758 -8.49937e-05 0.047951844 -0.05030119
0.0056018727 0.05535672 -0.056472767 -0.31689653 -0.023482345 -0.029226085 0.1179992 -0.23557338
0.04499733 0.0027713282 -0.05294681 0.1974071 -0.14945199 -0.13058917 -0.02747816 0.015352076
-0.046206873 -0.16110918 -0.042060744 -0.20019479 0.061329395 0.072616756 0.22270405 0.14031065
-0.20756005 -0.02807023 -0.049119253 0.11738304 -0.03374752 -0.19619627 0.11702626 -0.09137065
-0.003986409 0.048279785 -0.049944516 0.08706913 0.32579947 -0.2210406 -0.041135784 0.12759812
-0.02769432 -0.0126094455 -0.15274137 0.19737256 0.14587322 -0.008862568 -0.03691019 0.13327587
0.0007101557 -0.097317435 0.030351555 0.052207746 -0.053861693 0.11708275 0.10353888 0.2964131
-0.055503074 0.089393355 -0.051954474 -0.041975945 0.13213015 -0.0640007 0.14070712 -0.060616884
-0.14265762 -0.024224231 0.13559668 -0.009840254 -0.0070416224 -0.09038745 0.04787503 0.20454007
0.018256629 -0.17157233 0.06766031 0.022964811 -0.0724647 0.054560054 0.14413789 -0.16800568
0.07824404 -0.30522522 -0.06904497 0.028945768 -0.007861266 0.004117768 0.049333226 -0.013763131
0.1182831 -0.09565052 -0.20941804 -0.018963112 0.08068652 -0.12726463 0.018939469 0.041341282
0.2866013 -0.04786851 -0.10738486 -0.17073084 0.09125519 -0.018204663 0.022459026 0.14161156
0.031840127 -0.0289379 0.028688874 -0.1403123 -0.05931369 0.0144622605 -0.051705502 -0.05126602
00000000: 57f2 933d b59e f5bd 67b9 fcbd 4a74 d63d
00000010: af9a febb 60e0 6e3d 261f 2b3e 8159 41be
00000020: c25f d73d 92e6 68bd deeb 3fbe 89be 18be
00000030: 8714 633e a53e b2b8 2769 443d 9f08 4ebd
00000040: ea8f b73b babd 623d fd4f 67bd 4340 a2be
00000050: 0c5e c0bc 8b6b efbc 91a9 f13d 263a 71be
00000060: 1f4f 383d 2c9f 353b c1de 58bd 1625 4a3e
00000070: f109 19be 2bb9 05be e119 e1bc 4687 7b3c
00000080: 6b43 3dbd cef9 24be e347 2cbd ddff 4cbe
00000090: 8834 7b3d 18b8 943d 880c 643e 98ad 0f3e
000000a0: 9f8a 54be 8af3 e5bc 4531 49bd 8566 f03d
000000b0: d73a 0abd ade7 48be 77ab ef3d 8920 bbbd
000000c0: 6ca0 82bb 06c1 453d 9f92 4cbd 4d51 b23d
000000d0: 30cf a63e 7858 62be ff7d 28bd 15a9 023e
000000e0: 33df e2bc d997 4ebc 3c68 1cbe 081c 4a3e
000000f0: ca5f 153e 4e34 11bc 242f 17bd 7879 083e
00000100: be29 3a3a 5d4e c7bd d3a3 f83c cad7 553d
00000110: 149e 5cbd 15c9 ef3d 310c d43d 75c3 973e
00000120: 3157 63bd dd13 b73d 37ce 54bd f8ee 2bbd
00000130: 204d 073e cd12 83bd 8715 103e 6949 78bd
00000140: d714 12be e571 c6bc dbd9 0a3e 0439 21bc
00000150: 69bd e6bb 0e1d b9bd 9c18 443d f472 513e
00000160: ed8e 953c a8b0 2fbe 7d91 8a3d b320 bc3c
00000170: 5f68 94bd 5d7a 5f3d e298 133e ae09 2cbe
00000180: 693e a03d 7b46 9cbe 7367 8dbd ad1f ed3c
00000190: 8acc 00bc 57ee 863b a311 4a3d c17e 61bc
000001a0: 693e f23d 6be4 c3bd af71 56be 8758 9bbc
000001b0: f93e a53d a951 02be f226 9b3c 7a55 293d
000001c0: 68bd 923e c511 44bd 98ec dbbd 11d4 2ebe
000001d0: 00e4 ba3d f221 95bc fefb b73c 9f02 113e
000001e0: cb6a 023d 2d0f edbc ee04 eb3c 07ae 0fbe
000001f0: e9f2 72bd 1ef3 6c3c 26c9 53bd 51fc 51bd

bn1.running_mean f4 [128]
0.38882008 0.11198394 0.11835575 0.030951727 0.23145759 0.52255934 0.37326396 0.245261
0.104034245 0.16574368 0.25109497 0.19234361 0.8530183 0.26367527 0.14668183 0.5095873
0.7251927 0.31908032 0.27659363 0.36921614 0.37830827 0.85713047 0.16957602 0.24712066
0.30916056 0.23026778 0.45651492 0.099608056 0.03273125 0.19839573 0.22031865 0.22012891
0.25389972 0.17984195 0.5613942 0.072412975 0.4525487 0.42399603 1.1745224 0.7646306
0.4003456 0.37140653 0.23555669 0.41125327 0.4366486 0.07226201 0.3188937 0.36849308
0.5195829 0.14457645 0.14404386 0.34913558 0.5211396 0.09653088 0.4820694 0.47596586
0.3889639 0.13636626 0.3112959 0.5080538 0.36645398 0.21355762 0.73489183 0.4244137
0.4944654 0.16098362 0.42934558 0.089916855 0.066797 0.7279793 0.33676973 0.2885372
0.22636539 0.5648523 0.21842536 0.49704367 0.18647797 0.7734142 1.444452 0.49792153
0.31337005 0.9691702 0.4144598 0.34616867 0.3160331 0.12667201 0.26937234 0.4659636
0.3451587 0.06607343 0.32548556 0.25145406 0.28736225 0.079291746 0.55842483 0.025702542
0.44586724 0.08725669 0.37500846 1.0590807 0.42879584 0.30759305 1.1786482 0.119251184
0.7689439 0.038189296 0.23075768 0.14004536 0.10761819 0.30534503 0.17223138 0.1804573
0.4191198 0.48794016 0.16031122 0.22929582 0.6929131 0.29774922 0.7306867 0.12792523
0.21640028 0.1365023 0.15558597 0.24896027 0.34462592 0.03817022 0.47029665 0.6635637
00000000: 6d13 c73e d657 e53d 8064 f23d 7a8e fd3c
00000010: 3803 6d3e 73c6 053f 741c bf3e b325 7b3e
00000020: e80f d53d b6b8 293e 858f 803e b9f5 443e
00000030: 685f 5a3f 7200 873e c333 163e 5074 023f
00000040: 3ba6 393f 7f5e a33e ae9d 8d3e e609 bd3e
00000050: 9fb1 c13e e76c 5b3f 56a5 2d3e 330d 7d3e
00000060: 4b4a 9e3e 51cb 6b3e 53bc e93e 4fff cb3d
00000070: 3411 063d 4028 4b3e 369b 613e 7969 613e
00000080: 25ff 813e 7d28 383e 88b7 0f3f 414d 943d
00000090: 77b4 e73e 0216 d93e c056 963f d5be 433f
000000a0: 19fa cc3e ff28 be3e c635 713e ca8f d23e
000000b0: 6890 df3e 1bfe 933d 0946 a33e 20ab bc3e
000000c0: 6303 053f d90b 143e 3c80 133e e6c1 b23e
000000d0: 6869 053f fbb1 c53d cdd1 f63e ccb1 f33e
000000e0: 4726 c73e 99a3 0b3e 2d62 9f3e d00f 023f
000000f0: db9f bb3e d9ae 5a3e df21 3c3f c14c d93e
00000100: 922a fd3e e4d8 243e 2fd3 db3e 5426 b83d
00000110: decc 883d da5c 3a3f 156d ac3e 26bb 933e
00000120: 54cc 673e 299a 103f e6aa 5f3e 827c fe3e
00000130: 15f4 3e3e 79fe 453f cee3 b83f 92ef fe3e
00000140: 0a72 a03e 8a1b 783f 1334 d43e 053d b13e
00000150: 17cf a13e 4fb6 013e 2ceb 893e c892 ee3e
00000160: a4b8 b03e 8251 873d 0ba6 a63e 96be 803e
00000170: 2521 933e b663 a23d eef4 0e3f 238e d23c
00000180: b648 e43e a3b3 b23d 1c01 c03e f58f 873f
00000190: 218b db3e d67c 9d3e f2dd 963f f739 f43d
000001a0: 82d9 443f 616c 1c3d be4b 6c3e 0d68 0f3e
000001b0: ed66 dc3d 2f56 9c3e 6c5d 303e ccc9 383e
000001c0: df96 d63e 4bd3 f93e a028 243e 86cc 6a3e
000001d0: c162 313f 9672 983e 490e 3b3f d5fe 023e
000001e0: 0998 5d3e 42c7 0b3e ee51 1f3e 71ef 7e3e
000001f0: cf72 b03e 6058 1c3d b9ca f03e 50df 293f

bn1.running_var f4 [128]
0.12766509 0.06689161 0.07023657 0.008911417 0.13113745 0.34165972 0.3114073 0.16835083
0.039779745 0.08225774 0.13233034 0.081875354 0.11823316 0.13907124 0.07499856 0.37261933
0.22741745 0.1397812 0.09186243 0.15048432 0.19139126 0.21431541 0.11434163 0.18350863
0.18724869 0.123215854 0.33733487 0.04480181 0.0077642533 0.06865762 0.11602192 0.0994277
0.1426299 0.06480649 0.1871647 0.02229297 0.26151565 0.1981838 1.0599875 0.07921363
0.050691515 0.24213916 0.11454557 0.11594639 0.2563213 0.025143618 0.15927565 0.17218241
0.41975734 0.05956456 0.061563544 0.21069507 0.3054547 0.03431112 0.3137299 0.34329972
0.3145802 0.058470275 0.20919749 0.2638733 0.27169842 0.14527786 0.5045372 0.2918319
0.30213618 0.06346272 0.15776531 0.048649255 0.02429143 0.4252472 0.18568364 0.123298965
0.06476277 0.19578385 0.14374848 0.3278972 0.094685875 0.6129188 0.2995993 0.15580577
0.14727792 0.08574733 0.2302999 0.17192529 0.19590673 0.05102907 0.18346679 0.33376867
0.23983482 0.021993013 0.1592358 0.09575867 0.15930279 0.026607148 0.2690919 0.0076089134
0.13633771 0.04009703 0.24164484 0.30726093 0.27165878 0.16830873 0.16350634 0.036536843
0.12266166 0.010544807 0.123262525 0.045461558 0.05770983 0.16412617 0.07448585 0.07662813
0.35195065 0.27999753 0.09119897 0.13353254 0.33386898 0.14271498 0.52249306 0.04806972
0.05437504 0.06115525 0.03963708 0.12066246 0.19263585 0.010767611 0.123024635 0.3790056
00000000: a3ba 023e 78fe 883d 31d8 8f3d 3101 123c
00000010: e548 063e 06ee ae3e c770 9f3e 2964 2c3e
00000020: 16f0 223d bf76 a83d 9b81 073e 44ae a73d
00000030: 3a24 f23d b168 0e3e d898 993d f6c7 be3e
00000040: 1fe0 683e ce22 0f3e 5f22 bc3d 9018 1a3e
00000050: 12fc 433e 8075 5b3e f22b ea3d b0e9 3b3e
00000060: 1fbe 3f3e 9858 fc3d 28b7 ac3e 1a82 373d
00000070: 476b fe3b 5e9c 8c3d e79c ed3d c0a0 cb3d
00000080: 930d 123e 44b9 843d 1aa8 3f3e bf9f b63c
00000090: 61e5 853e b2f0 4a3e acad 873f c13a a23d
000000a0: e8a1 4f3d 54f3 773e de96 ea3d 4d75 ed3d
000000b0: 8c3c 833e fdf9 cd3c 2819 233e 9650 303e
000000c0: 6fea d63e f8f9 733d 0e2a 7c3d 73c0 573e
000000d0: 8f64 9c3e d189 0c3d 35a1 a03e fbc4 af3e
000000e0: a810 a13e 877e 6f3d de37 563e 671a 873e
000000f0: 0e1c 8b3e b8c3 143e 5a29 013f fe6a 953e
00000100: 98b1 9a3e bef8 813d 3b8d 213e 7144 473d
00000110: d2fe c63c 00ba d93e da23 3e3e 2b84 fc3d
00000120: 58a2 843d 907b 483e cd32 133e 24e2 a73e
00000130: abea c13d 3fe8 1c3f 1465 993e 8c8b 1f3e
00000140: 06d0 163e 4c9c af3d bdd3 6b3e 2f0d 303e
00000150: c69b 483e dc03 513d b8de 3b3e bae3 aa3e
00000160: 4297 753e b12a b43c b60e 233e 1f1d c43d
00000170: 4520 233e 3cf7 d93c 6ac6 893e 3154 f93b
00000180: 1d9c 0b3e c93c 243d bf71 773e 4e51 9d3e
00000190: dc16 8b3e 2059 2c3e 356e 273e a8a7 153d
000001a0: 0936 fb3d 20c4 2c3c 1071 fc3d e635 3a3d
000001b0: 2561 6c3d b110 283e 0a8c 983d 36ef 9c3d
000001c0: e032 b43e d65b 8f3e 87c6 ba3d c1bc 083e
000001d0: e0f0 aa3e e023 123e 1bc2 053f c1e4 443d
000001e0: 5db8 5e3d ed7d 7a3d 7e5a 223d e11d f73d
000001f0: 5542 453e a26a 303c 57f4 fb3d 060d c23e

fc2.weight f4 [128, 128]
0.21352072 0.0513513 0.22418675 0.10982203 -0.056134008 0.0906714 -0.27630505 0.21574107
-0.061055187 0.15627277 0.024838995 0.056458514 0.18023996 -0.10599556 -0.057490736 -0.049304105
0.048735943 0.23374811 0.09855265 -0.13672295 -0.09870651 -0.1067544 0.37902388 -0.16004717
-0.06403704 -0.07344805 -0.0721203 0.079883166 -0.04924243 -0.13502698 -0.33156586 0.08616903
-0.19080636 -0.058712874 -0.003247641 0.2840395 -0.13525449 -0.04525864 -0.09667802 0.36244267
0.27376777 -0.28200433 -0.28257856 0.17986937 0.19460621 -0.018876962 0.15366405 0.107793085
-0.01501994 0.081349835 0.13860714 -0.010699939 0.09862595 0.07766651 -0.03371488 0.19571552
-0.09803108 0.09960577 0.040608425 0.10929526 -0.12005916 -0.01867999 -0.060018443 0.01881251
0.0973675 -0.10916072 0.26635993 0.19284901 0.32353908 -0.0841548 0.04170202 -0.038026787
0.027709577 0.053159855 -0.15777355 0.009750442 -0.08708011 -0.089554265 -0.002956637 -0.100346655
0.2776168 -0.110673845 -0.4017344 0.067802325 -0.33883512 0.08488325 -0.10744734 0.05845561
0.024410572 -0.03331636 -0.060950533 0.01369305 0.09284468 0.006232899 0.1886032 -0.06626372
-0.0012503071 0.17953204 0.016256198 0.101491176 0.0047691106 0.042071953 -0.15543927 -0.030817665
-0.10082985 -0.027025938 -0.26327613 0.00041826014 -0.13351873 -0.12746747 0.0029898826 0.02429385
-0.07670069 -0.024177406 -0.093374394 0.032483798 0.16069652 0.0071952664 0.025438521 0.13747013
0.02307415 -0.0034863923 -0.0431999 0.09023586 0.01311449 -0.05482969 -0.25216636 -0.005765578
-0.023525592 -0.14346865 -0.05821226 -0.11536778 -0.47869462 -0.37748468 0.18968119 0.065241925
0.04594038 0.24088985 0.25723615 -0.30293268 0.122234106 0.15344635 -0.08808427 0.08407886
0.07460533 0.21535937 -0.09970837 0.20582795 0.07174076 0.29049915 -0.081982665 -0.14926408
-0.0029988876 -0.040431015 0.19288258 -0.21101543 0.021157963 -0.13348484 -0.02724445 0.06813782
-0.38887638 0.16612446 -0.09201048 0.26179346 -0.10704152 -0.14067626 -0.094992444 -0.018229734
-0.16399547 0.14988512 -0.26995772 0.04289072 -0.18780585 -0.14798197 -0.07353625 0.09835305
0.31737506 -0.15987842 -0.033705156 -0.077972814 0.01880346 0.13984694 0.15164092 -0.18642594
-0.24534294 -0.054147128 -0.16743709 0.20189199 0.24193878 -0.18860377 -0.1431956 -0.17334902
0.16159728 0.2046914 0.026648756 -0.18480666 -0.37395874 -0.002857177 -0.25859234 -0.103819594
-0.18950328 0.10282503 0.24410927 -0.013703347 0.13316126 -0.10099859 0.013875452 -0.07448085
-0.025875961 0.14140907 0.18592304 -0.32409346 -0.050647408 0.12542138 -0.08632421 0.09549237
-0.12139653 -0.12995939 -0.12979244 -0.07650926 -0.04839803 -0.1830769 0.011867141 0.0865482
0.18327649 0.076568514 0.025788708 -0.22437783 0.0824806 -0.18151431 0.16063073 0.033585664
0.10577144 -0.02958142 -0.12586357 -0.40316257 -0.0140115265 -0.08397214 0.10933722 0.19913615
-0.011322758 -0.19330055 -0.041622076 0.21310484 -0.15003997 -0.19951317 -0.03878 0.0674034
-0.036145646 -0.048677947 -0.28202996 0.04882417 -0.20951582 -0.09598164 -0.07461821 0.05220557
00000000: 2da5 5a3e be55 523d 3691 653e 5fea e03d
00000010: c6ec 65bd edb1 b93d db77 8dbe 3aeb 5c3e
00000020: 0115 7abd f805 203e 267b cb3c 0b41 673d
00000030: d390 383e 3314 d9bd 687b 6bbd 1af3 49bd
00000040: 579f 473d aa5b 6f3e f9d5 c93d 1a01 0cbe
00000050: a426 cabd 0da2 dabd 6b0f c23e 68e3 23be
00000060: da25 83bd ee6b 96bd cfb3 93bd c999 a33d
00000070: 6eb2 49bd 8344 0abe 00c3 a9be 6379 b03d
00000080: be62 43be e97c 70bd 60d6 54bb a06d 913e
00000090: 2780 0abe 2061 39bd 20ff c5bd 1692 b93e
000000a0: 4a2b 8c3e df62 90be 23ae 90be ad2f 383e
000000b0: da46 473e dca3 9abc 1c5a 1d3e 9fc2 dc3d
000000c0: 3216 76bc be9a a63d 08ef 0d3e cc4e 2fbc
000000d0: 67fc c93d 9f0f 9f3d 9d18 0abd a669 483e
000000e0: 85c4 c8bd 1cfe cb3d 0555 263d 31d6 df3d
000000f0: 94e1 f5bd c706 99bc e6d5 75bd b11c 9a3c
00000100: 9d68 c73d a88f dfbd 5460 883e 367a 453e
00000110: eaa6 a53e 5a59 acbd bdcf 2a3d fac1 1bbd
00000120: 32ff e23c 26be 593d 648f 21be 51c0 1f3c
00000130: 0f57 b2bd 3a68 b7bd 23c4 41bb 8c82 cdbd
00000140: ca23 8e3e f8a8 e2bd 22b0 cdbe f2db 8a3d
00000150: cc7b adbe 45d7 ad3d 5a0d dcbd 266f 6f3d
00000160: aef8 c73c bc76 08bd 44a7 79bd d058 603c
00000170: 5a25 be3d 593d cc3b 3221 413e 46b5 87bd
00000180: 58e1 a3ba 3fd7 373e b82b 853c 9bda cf3d
00000190: 3346 9c3b a453 2c3d 792b 1fbe 5475 fcbc
000001a0: e17f cebd 8065 ddbc 21cc 86be ed49 db39
000001b0: 22b9 08be d586 02be e8f1 433b e503 c73c
000001c0: 4015 9dbd b20f c6bc 133b bfbd bb0d 053d
000001d0: a18d 243e 45c6 eb3b 7264 d03c f8c4 0c3e
000001e0: 0006 bd3c f57b 64bb 61f2 30bd 94cd b83d
000001f0: 28de 563c 1995 60bd f31b 81be 2ced bcbb
00000200: beb8 c0bc 72e9 12be fb6f 6ebd f145 ecbd
00000210: 7617 f5be ac45 c1be c93b 423e 8f9d 853d
00000220: fb2b 3c3d d4ab 763e 75b4 833e fe19 9bbe
00000230: e055 fa3d 0a21 1d3e 8765 b4bd 8a31 ac3d
00000240: aeca 983d 2b87 5c3e e733 ccbd 90c4 523e
00000250: d2ec 923d 4ebc 943e 87e6 a7bd afd8 18be
00000260: fc88 44bb fe9a 25bd 0383 453e 6e14 58be
00000270: 7753 ad3c 40b0 08be c12f dfbc d78b 8b3d
00000280: ce1a c7be 881c 2a3e fe6f bcbd cb09 863e
00000290: 9638 dbbd 700d 10be 668b c2bd 8656 95bc
000002a0: 6eee 27be 7c7b 193e e637 8abe 2eae 2f3d
000002b0: 2d50 40be 9688 17be 2c9a 96bd 536d c93d
000002c0: fc7e a23e 2bb7 23be 6b0e 0abd 36b0 9fbd
000002d0: b709 9a3c 0934 0f3e c247 1b3e 71e6 3ebe
000002e0: 2e3b 7bbe 61c9 5dbd a174 2bbe c6bc 4e3e
000002f0: cdbe 773e 5921 41be dea1 12be 6882 31be
00000300: c279 253e 9f9a 513e 7e4e da3c f53d 3dbe
00000310: 8577 bfbe 7a3f 3bbb 3766 84be 5e9f d4bd
00000320: 260d 42be ee95 d23d c8f7 793e 0184 60bc
00000330: 6d5b 083e 59d8 cebd dd55 633c 6a89 98bd
00000340: d3f9 d3bc 8acd 103e 9c62 3e3e 94ef a5be
00000350: a873 4fbd 766e 003e bfca b0bd 8191 c33d
00000360: be9e f8bd 1314 05be 4fe8 04be e3b0 9cbd
00000370: 033d 46bd 8378 3bbe 666e 423c 2f40 b13d
00000380: d5ac 3b3e f4cf 9c3d d742 d33c 4dc3 65be
00000390: 97eb a83d e3de 39be 627c 243e 1f91 093d
000003a0: b29e d83d bc54 f2bc 61e2 00be 536b cebe
000003b0: 9a90 65bc 96f9 abbd 31ec df3d 59ea 4b3e
000003c0: 1783 39bc 94f0 45be e97b 2abd 2838 5a3e
000003d0: 14a4 19be 2e4d 4cbe c7d7 1ebd cb0a 8a3d
000003e0: 750d 14bd 8762 47bd 3b66 90be dafb 473d
000003f0: 518b 56be 0692 c4bd 6fd1 98bd 82d5 553d

fc2.bias f4 [128]
0.06900741 -0.00433096 0.030373959 0.22541201 -0.19409116 -0.0278997 -0.4355984 -0.16263364
0.009333697 0.17007343 -0.1300903 0.14615506 0.03013487 -0.086283505 0.012986591 -0.118287
0.06683844 -0.05429781 -0.02946888 -0.20311372 -0.19379073 -0.12173394 0.121449746 0.024199566
0.097200714 -0.04590536 0.073038206 -0.16796748 0.13528918 -0.07019407 -0.24385233 -0.014965114
-0.032471716 0.03355579 -0.067583136 0.05325178 0.06328436 -0.16094509 0.16704036 0.058803614
-0.021518875 -0.015098179 -0.13003485 0.11037215 -0.0035362074 -0.13110048 -0.08878873 0.03691785
0.19890273 0.11097365 0.14627875 0.10422532 0.10335521 0.033968553 -0.056519695 -0.12977035
0.10305324 0.10513462 0.15107019 0.08966661 -0.1314567 -0.25330272 -0.014124059 0.038222317
-0.086322404 0.14194745 -0.14194117 -0.24757986 0.0364308 0.009382129 0.05847801 0.18856591
0.04929896 0.0577082 -0.020111088 -0.12674187 -0.47227573 0.05874829 0.14226176 0.26179236
0.06336698 -0.050933886 -0.020609694 0.14596112 0.15499263 0.123168334 0.059930637 -0.11548593
-0.12959497 -0.1367693 0.022902686 0.021754846 0.093068674 -0.03492492 -0.09562362 0.14265084
-0.039140165 -0.006899287 -0.2058648 -0.016527431 -0.05284235 0.18095356 -0.0055162953 0.26955727
0.072820894 0.1544669 0.030185279 0.034114555 0.09627879 0.030012814 -0.089153394 0.04249027
0.07640867 0.12961857 -0.050258335 -0.14673439 0.07015187 -0.054489538 -0.1120793 -0.33644682
-0.017100088 -0.09813065 0.042089082 -0.19518416 -0.036121026 0.03648232 0.048610713 -0.013620152
00000000: c253 8d3d baea 8dbb cfd2 f83c 68d2 663e
00000010: d5bf 46be e98d e4bc c106 dfbe 6f89 26be
00000020: 5dec 183c bb27 2e3e 6436 05be aca9 153e
00000030: 67dd f63c 68b5 b0bd b6c5 543c 7440 f2bd
00000040: 98e2 883d 6167 5ebd b868 f1bc 0bfd 4fbe
00000050: 1471 46be a54f f9bd a5ba f83d 2b3e c63c
00000060: 2b11 c73d 4207 3cbd 0e95 953d abff 2bbe
00000070: 3f89 0a3e e9c1 8fbd 6db4 79be 3d30 75bc
00000080: 1001 05bd cc71 093d 0769 8abd 8a1e 5a3d
00000090: 3b9b 813d cace 24be a10c 2b3e 0fdc 703d
000000a0: 5a48 b0bc 5a5e 77bc db27 05be cb0a e23d
000000b0: b7bf 67bb 343f 06be ded6 b5bd 2c37 173d
000000c0: 28ad 4b3e 2746 e33d 19ca 153e 1674 d53d
000000d0: e5ab d33d 9c22 0b3d 3281 67bd 85e2 04be
000000e0: 940d d33d d250 d73d 25b2 1a3e 21a3 b73d
000000f0: 969c 06be e5b0 81be 9968 67bc 018f 1c3d
00000100: cdc9 b0bd ac5a 113e 0759 11be 9385 7dbe
00000110: 7638 153d 80b7 193c a386 6f3d 6c17 413e
00000120: b5ed 493d 6f5f 6c3d 02c0 a4bc 9fc8 01be
00000130: 20ce f1be 0ca2 703d 11ad 113e a609 863e
00000140: 8cc6 813d 0da0 50bd a9d5 a8bc d576 153e
00000150: 63b6 1e3e ae3f fc3d d479 753d e383 ecbd
00000160: 8bb4 04be 400d 0cbe 6a9e bb3c 3837 b23c
00000170: ca9a be3d 6f0d 0fbd 51d6 c3bd 1013 123e
00000180: 7051 20bd 6a13 e2bb 39ce 52be 8964 87bc
00000190: 3871 58bd e44b 393e 0ac2 b4bb 6903 8a3e
000001a0: 1f23 953d 922c 1e3e 1e47 f73c b4bb 0b3d
000001b0: d02d c53d 6fdd f53c 0e96 b6bd 470a 2e3d
000001c0: 267c 9c3d bbba 043e afdb 4dbd 8a41 16be
000001d0: c9ab 8f3d 6c30 5fbd d589 e5bd c242 acbe
000001e0: 7c15 8cbc b9f8 c8bd 9a65 2c3d 5bde 47be
000001f0: a4f3 13bd 7c6e 153d 071c 473d 0f27 5fbc

fc3.weight f4 [4, 128]
-0.09673263 0.10221655 0.018018154 -0.3728387 -0.0748837 -0.033846527 0.17462043 0.44076478
-0.032233328 -0.24581388 0.35469282 -0.4184777 -0.07784676 0.042657338 0.14918663 0.051741812
-0.106187135 0.062384505 0.5626021 -0.18449649 -0.4669241 0.355557 0.045138307 0.12872462
-0.011542895 -0.22735289 0.27742127 0.15608951 0.061772943 0.1915512 0.03311561 -0.024967868
0.12701944 -0.052777287 0.47404593 0.39409178 -0.03547797 0.04921405 0.14006728 -0.35078594
0.059001006 0.17187597 0.023553481 -0.3070242 -0.16440085 -0.25895736 0.2655889 -0.18439646
-0.31135386 -0.32842207 0.21823733 -0.105016366 -0.026873136 -0.1474828 -0.19746922 0.16405779
-0.38396108 -0.33633885 -0.136005 0.13721842 0.110934064 -0.061869927 0.06394996 -0.0816185
-0.007080194 0.11914479 -0.18901387 0.15795091 0.04836038 -0.02992281 0.06977392 -0.21285586
0.49487746 0.11258281 -0.088084355 -0.312313 0.35899055 -0.04662947 0.5131366 -0.2692565
0.29552642 -0.022784244 0.008695863 0.27948102 -0.359484 0.3327029 -0.059505817 0.05948506
0.3525197 -0.18134281 -0.08588843 0.2849782 -0.015316729 -0.36355215 0.038524214 0.0016738262
-0.0749931 -0.1576209 -0.3751609 -0.37267372 0.20931247 0.03063528 -0.042079356 -0.25541297
-0.01329545 0.11184934 -0.29590786 -0.0035450102 0.10128521 0.27413553 0.04093417 -0.35481852
-0.06852544 -0.24240169 0.43805006 0.15366706 0.27153257 0.46457797 -0.089369155 0.3571715
-0.21707754 0.31214038 0.45090574 -0.0011106428 -0.30964267 0.059960682 -0.066950485 0.59678954
0.0902461 0.09149548 0.15773499 -0.17500386 0.18351616 -0.33292925 0.19013745 -0.33644763
-0.002293239 -0.17455915 -0.25608185 -0.09852402 0.3982488 -0.23556224 -0.07746821 -0.028866878
-0.1801308 -0.023317903 0.35252228 -0.2331011 -0.28520897 -0.44159043 -0.19051164 -0.32153934
-0.1394625 0.09678891 0.06288874 0.22855705 -0.024370246 0.24354327 -0.018287765 -0.168995
-0.16189301 0.041596197 -0.13813026 -0.36552614 -0.024359582 -0.30641612 0.06778551 -0.043057475
0.16829428 0.5614319 0.00489573 -0.28865406 0.54164743 -0.17764024 -0.117369294 0.5190648
0.06025582 -0.057049543 0.04494275 -0.24445836 0.0787359 -0.21681653 0.27630606 0.409714
-0.039900392 0.31471553 -0.033434633 -0.12491543 0.0976969 -0.13439243 0.074423596 -0.002783887
-0.21244808 -0.28333718 0.13912366 -0.5291283 -0.09907934 -0.09281854 0.045447595 0.36815876
0.20473036 0.21491235 -0.5474497 0.021060174 0.19066466 0.24973078 -0.0030071083 0.2856082
0.20803969 0.4033365 -0.1264884 0.02692531 -0.069106005 -0.134509 0.46502462 -0.7269509
0.3162704 0.29733014 0.07282991 -0.28640264 -0.44355625 0.05721043 -0.2590456 0.02609258
-0.31515267 -0.27730745 0.20769937 -0.24278829 0.31309327 0.29289848 -0.24416722 0.27063262
0.118333355 -0.06446484 -0.076735936 0.58840793 0.34493253 -0.40063602 -0.2489907 0.105245724
0.15536204 0.3671641 -0.16944966 -0.12347992 -0.39477155 -0.029431932 0.4931866 -0.18325396
-0.22568531 -0.011598811 0.11358056 -0.07395817 0.03109592 -0.47152483 -0.13293746 -0.17004453
00000000: c21b c6bd e956 d13d cf9a 933c b7e4 bebe
00000010: a05c 99bd a8a2 0abd b3cf 323e ecab e13e
00000020: 1807 04bd a2b6 7bbe 4c9a b53e b642 d6be
00000030: 1f6e 9fbd 76b9 2e3d 61c4 183e 39ef 533d
00000040: a478 d9bd e586 7f3d b106 103f a6ec 3cbe
00000050: ad10 efbe 910b b63e f2e2 383d 63d0 033e
00000060: 691e 3dbc 32cf 68be 290a 8e3e eed5 1f3e
00000070: a005 7d3d ff25 443e 3ca4 073d 6a89 ccbc
00000080: 6211 023e ff2c 58bd 26b6 f23e 66c6 c93e
00000090: 5951 11bd ac94 493d cc6d 0f3e 379a b3be
000000a0: 0aab 713d 4100 303e 3bf3 c03c 4732 9dbe
000000b0: b258 28be 0f96 84be 45fb 873e 6dd2 3cbe
000000c0: c669 9fbe f026 a8be 9b79 5f3e d212 d7bd
000000d0: 0d25 dcbc bb05 17be 5f35 4abe c4fe 273e
000000e0: 8c96 c4be 9b34 acbe e544 0bbe fc82 0c3e
000000f0: 6631 e33d 526b 7dbd 32f8 823d 9a27 a7bd
00000100: f900 e8bb 2f02 f43d da8c 41be e2bd 213e
00000110: 8915 463d ae20 f5bc a1e5 8e3d e3f6 59be
00000120: 9460 fd3e d191 e63d 9265 b4bd 7de7 9fbe
00000130: 9ccd b73e 8bfe 3ebd ec5c 033f fddb 89be
00000140: 3d4f 973e 06a6 babc 1879 0e3c 2318 8f3e
00000150: 490e b8be 0958 aa3e 5fbc 73bd 9ba6 733d
00000160: 767d b43e eeb1 39be 46e6 afbd aae8 913e
00000170: 05f3 7abc 8223 babe 91cb 1d3d 4a64 db3a
00000180: fb95 99bd 6067 21be 1715 c0be 17cf bebe
00000190: 0256 563e d7f6 fa3c 675b 2cbd 7dc5 82be
000001a0: 29d5 59bc 4411 e53d 3c81 97be 6753 68bb
000001b0: 9f6e cf3d 7e5b 8c3e 97aa 273d c6aa b5be
000001c0: 1157 8cbd 2638 78be 1948 e03e e65a 1d3e
000001d0: 5106 8b3e 2add ed3e 2d07 b7bd 2fdf b63e
000001e0: 9349 5ebe ddd0 9f3e 1edd e63e fd92 91ba
000001f0: 7c89 9ebe 5599 753d 561d 89bd 33c7 183f
00000200: f3d2 b83d fb61 bb3d 4885 213e 3634 33be
00000210: a9eb 3b3e b475 aabe 64b3 423e dd42 acbe
00000220: 2b4a 16bb a2bf 32be 291d 83be f6c6 c9bd
00000230: 44e7 cb3e 3a37 71be a7a7 9ebd 3b7a ecbc
00000240: 3574 38be 3005 bfbc cd7d b43e 0eb2 6ebe
00000250: e906 92be 2418 e2be 7c15 43be cea0 a4be
00000260: 42cf 0ebe 4439 c63d d0cb 803d dc0a 6a3e
00000270: 1ca4 c7bc 6863 793e 39d0 95bc 060d 2dbe
00000280: 48c7 25be c660 2a3d 0572 0dbe 3e26 bbbe
00000290: bf8d c7bc 93e2 9cbe 21d3 8a3d 095d 30bd
000002a0: 5655 2c3e 00ba 0f3f 5c6c a03b 77ca 93be
000002b0: 68a9 0a3f 53e7 35be 505f f0bd 6ee1 043f
000002c0: cfce 763d c8ac 69bd e415 383d 4b53 7abe
000002d0: 4a40 a13d 2705 5ebe fd77 8d3e 09c6 d13e
000002e0: 986e 23bd 6522 a13e c1f2 08bd a9d3 ffbd
000002f0: 5015 c83d 2b9e 09be 666b 983d e071 36bb
00000300: fd8b 59be 9211 91be 6f76 0e3e f474 07bf
00000310: 1cea cabd a617 bebd 4227 3a3d 4e7f bc3e
00000320: d6a4 513e fc11 5c3e aa25 0cbf 6386 ac3c
00000330: 993d 433e 6db9 7f3e e812 45bb 3d3b 923e
00000340: 5b08 553e 1f82 ce3e 2d86 01be 7892 dc3c
00000350: 7387 8dbd babc 09be b517 ee3e 7419 3abf
00000360: 32ee a13e a83b 983e d927 953d 5ea3 92be
00000370: ce19 e3be 7c55 6a3d a0a1 84be 1bc0 d53c
00000380: b15b a1be 3efb 8dbe 25af 543e 7e9d 78be
00000390: c34d a03e caf6 953e f906 7abe 5c90 8a3e
000003a0: c258 f23d 2406 84bd bb27 9dbd e7a1 163f
000003b0: ff9a b03e 2a20 cdbe 6bf7 7ebe 128b d73d
000003c0: 3a17 1f3e effc bb3e 3684 2dbe 0ae3 fcbd
000003d0: 7f1f cabe 3c1b f1bc f482 fc3e eda6 3bbe
000003e0: 0d1a 67be f008 3ebc ed9c e83d 6277 97bd
000003f0: dfbc fe3c b46b f1be c220 08be 2720 2ebe

fc3.bias f4 [4]
-0.17313448 0.05745309 -0.02031385 0.11468353
00000000: 2a4a 31be ee53 6b3d 3b69 a6bc 33df ea3d
